128x128-0.35-only-OpenMV-H7-Plus/trained.tflite (tflite, 57160 bytes, 21 tensors)

model_1/Conv1/Conv2D i1 [16, 3, 3, 3]
0 0 0 0 0 0 0 0
0 0 0 0 0 0 0 0
0 0 0 0 0 0 0 0
0 0 0 67 -11 34 16 -27
21 -121 -127 -62 17 -12 1 -5
-1 -1 10 -40 10 6 13 3
7 2 2 48 -27 17 28 -5
-4 78 123 6 32 -51 -2 6
14 1 65 127 -30 8 -19 -18
45 -68 22 72 -46 -22 21 -66
7 6 40 5 34 98 19 -3
-5 -14 20 44 9 69 127 23
-16 -28 -5 0 4 3 27 20
0 -4 -10 -4 28 60 -47 5
73 -47 -21 10 -34 38 107 16
20 117 -3 23 59 -46 47 95
2 35 127 -25 -25 34 -11 9
2 -109 -1 1 -90 -2 23 -24
6 -45 -127 1 -47 -108 2 3
-23 2 5 -17 6 -5 -10 5
7 -9 26 -60 39 47 -86 44
9 -18 14 36 -94 66 63 -127
75 6 -26 22 20 -33 18 14
-43 30 -12 10 4 -26 23 7
-110 -31 4 -29 26 4 -9 2
5 -127 -83 -2 -7 1 8 -15
39 -4 -7 20 4 -15 34 2
95 113 50 104 107 21 127 109
-30 98 114 41 86 106 17 116
107 -28 98 112 14 55 104 -11
56 100 -44 -22 -8 5 -20 -8
-2 -1 1 -14 99 110 -13 81
00000000: 0000 0000 0000 0000 0000 0000 0000 0000
00000010: 0000 0000 0000 0000 0000 0043 f522 10e5
00000020: 1587 81c2 11f4 01fb ffff 0ad8 0a06 0d03
00000030: 0702 0230 e511 1cfb fc4e 7b06 20cd fe06
00000040: 0e01 417f e208 edee 2dbc 1648 d2ea 15be
00000050: 0706 2805 2262 13fd fbf2 142c 0945 7f17
00000060: f0e4 fb00 0403 1b14 00fc f6fc 1c3c d105
00000070: 49d1 eb0a de26 6b10 1475 fd17 3bd2 2f5f
00000080: 0223 7fe7 e722 f509 0293 ff01 a6fe 17e8
00000090: 06d3 8101 d194 0203 e902 05ef 06fb f605
000000a0: 07f7 1ac4 272f aa2c 09ee 0e24 a242 3f81
000000b0: 4b06 e616 14df 120e d51e f40a 04e6 1707
000000c0: 92e1 04e3 1a04 f702 0581 adfe f901 08f1
000000d0: 27fc f914 04f1 2202 5f71 3268 6b15 7f6d
000000e0: e262 7229 566a 1174 6be4 6270 0e37 68f5
000000f0: 3864 d4ea f805 ecf8 feff 01f2 636e f351

model_1/expanded_conv_depthwise_BN/FusedBatchNormV3;model_1/expanded_conv_depthwise/depthwise;model_1/block_5_project/Conv2D i1 [1, 3, 3, 16]
-108 18 -82 -127 38 -67 80 -76
-90 -3 -8 30 -127 4 54 -73
51 25 -127 127 127 -127 127 -127
-85 127 -127 51 -105 5 127 -25
24 -24 90 -2 -73 68 -94 77
-95 -27 3 -15 61 1 -102 -29
-127 127 -22 13 -44 16 -28 14
-28 0 3 -108 -49 8 -30 -14
-78 -42 -57 -15 -8 -25 8 -27
-108 -89 21 -12 -104 -127 1 23
14 1 64 2 2 35 -25 33
-127 6 -2 2 -21 12 -4 43
-115 -72 68 2 -7 40 -39 52
-76 0 0 4 40 2 -27 23
23 -4 30 -2 -28 41 -34 21
-125 -13 0 83 -58 0 -29 -111
21 -7 18 0 4 15 9 22
-115 4 -1 -127 107 3 17 -127
00000000: 9412 ae81 26bd 50b4 a6fd f81e 8104 36b7
00000010: 3319 817f 7f81 7f81 ab7f 8133 9705 7fe7
00000020: 18e8 5afe b744 a24d a1e5 03f1 3d01 9ae3
00000030: 817f ea0d d410 e40e e400 0394 cf08 e2f2
00000040: b2d6 c7f1 f8e7 08e5 94a7 15f4 9881 0117
00000050: 0e01 4002 0223 e721 8106 fe02 eb0c fc2b
00000060: 8db8 4402 f928 d934 b400 0004 2802 e517
00000070: 17fc 1efe e429 de15 83f3 0053 c600 e391
00000080: 15f9 1200 040f 0916 8d04 ff81 6b03 1181

model_1/expanded_conv_project/Conv2D i1 [8, 1, 1, 16]
0 -16 6 -3 122 -3 -8 -1
-1 -127 -86 -1 0 116 -1 0
0 -30 -1 85 76 13 21 4
1 -4 127 -43 0 33 -8 0
0 2 -6 -13 -62 5 12 0
-1 -1 -18 2 0 127 -8 0
0 -9 -12 -127 82 19 65 11
1 62 -4 46 0 -2 22 0
0 48 -23 33 -59 25 127 2
-1 -58 23 -3 0 -4 6 0
0 -17 -11 -1 -23 -24 -7 13
-1 9 -5 -49 0 -5 127 0
0 13 2 4 52 -18 -16 -4
0 -107 113 66 0 127 61 0
0 14 -7 127 1 0 13 12
0 62 -50 76 0 -10 45 0
00000000: 00f0 06fd 7afd f8ff ff81 aaff 0074 ff00
00000010: 00e2 ff55 4c0d 1504 01fc 7fd5 0021 f800
00000020: 0002 faf3 c205 0c00 ffff ee02 007f f800
00000030: 00f7 f481 5213 410b 013e fc2e 00fe 1600
00000040: 0030 e921 c519 7f02 ffc6 17fd 00fc 0600
00000050: 00ef f5ff e9e8 f90d ff09 fbcf 00fb 7f00
00000060: 000d 0204 34ee f0fc 0095 7142 007f 3d00
00000070: 000e f97f 0100 0d0c 003e ce4c 00f6 2d00

model_1/block_1_expand/Conv2D i1 [48, 1, 1, 8]
12 -127 50 -40 31 -16 -44 24
71 70 -15 -84 17 6 -78 127
30 6 -44 119 58 127 39 91
83 65 -91 127 -109 2 6 17
-41 -108 65 15 11 36 -41 -127
21 9 -36 46 4 -39 36 127
58 -19 -127 -82 126 -1 39 -29
127 15 21 -19 37 -6 84 -55
23 -113 3 118 6 36 0 -127
104 -127 9 1 -7 14 -122 90
-127 -47 -124 11 -12 9 -107 54
-19 -37 -8 -97 -127 -26 45 -14
14 -1 -41 62 -82 -24 62 127
0 0 0 0 0 0 0 0
-5 -29 -6 12 49 127 44 50
44 6 12 -127 56 33 -47 76
0 0 0 0 0 0 0 0
17 25 127 20 -29 -4 32 40
79 -127 20 26 -12 22 -107 -3
-127 -4 30 74 -40 -42 -84 62
45 29 -47 119 -37 -127 6 72
57 24 127 12 -11 -9 66 12
-81 -6 -127 7 11 10 -108 8
-91 127 -11 -10 13 -7 122 -73
4 -58 -54 73 -17 -54 104 127
15 39 29 26 127 113 -74 -53
-91 -29 -127 -4 15 21 -102 6
3 -16 -33 14 -45 127 61 48
2 -31 -23 66 29 127 58 60
86 33 127 2 -9 -8 82 -5
-85 127 -26 -38 11 -12 106 -43
-49 -98 -14 12 59 -88 126 127
00000000: 0c81 32d8 1ff0 d418 4746 f1ac 1106 b27f
00000010: 1e06 d477 3a7f 275b 5341 a57f 9302 0611
00000020: d794 410f 0b24 d781 1509 dc2e 04d9 247f
00000030: 3aed 81ae 7eff 27e3 7f0f 15ed 25fa 54c9
00000040: 178f 0376 0624 0081 6881 0901 f90e 865a
00000050: 81d1 840b f409 9536 eddb f89f 81e6 2df2
00000060: 0eff d73e aee8 3e7f 0000 0000 0000 0000
00000070: fbe3 fa0c 317f 2c32 2c06 0c81 3821 d14c
00000080: 0000 0000 0000 0000 1119 7f14 e3fc 2028
00000090: 4f81 141a f416 95fd 81fc 1e4a d8d6 ac3e
000000a0: 2d1d d177 db81 0648 3918 7f0c f5f7 420c
000000b0: affa 8107 0b0a 9408 a57f f5f6 0df9 7ab7
000000c0: 04c6 ca49 efca 687f 0f27 1d1a 7f71 b6cb
000000d0: a5e3 81fc 0f15 9a06 03f0 df0e d37f 3d30
000000e0: 02e1 e942 1d7f 3a3c 5621 7f02 f7f8 52fb
000000f0: ab7f e6da 0bf4 6ad5 cf9e f20c 3ba8 7e7f

model_1/block_1_depthwise_BN/FusedBatchNormV3;model_1/block_1_depthwise/depthwise;model_1/block_3_depthwise/depthwise i1 [1, 3, 3, 48]
-43 -21 -7 -16 8 -39 -79 -69
-25 -49 9 65 34 -71 113 -43
-113 -86 37 -7 -2 -71 -110 -79
-34 -126 -63 -21 72 16 96 26
-127 -89 -8 55 17 48 -127 80
-76 -14 103 -110 -3 -35 -87 108
75 10 -27 -27 58 -127 -127 -81
61 -76 -114 108 38 -82 -2 62
-52 -113 59 7 9 -112 -127 -70
-4 -127 -119 -37 -54 21 -57 54
30 -127 65 84 12 73 -94 127
-127 6 124 -127 2 -22 -127 94
-32 44 6 -4 -66 -108 -59 -17
88 -7 -127 37 7 -71 -101 -12
-127 -24 27 12 -17 -77 -36 -23
-10 -31 -58 -12 -9 19 -25 9
106 -86 70 32 14 36 -4 16
-77 2 7 -80 -17 6 -55 15
-85 -127 -45 -44 -10 54 99 -106
-25 -108 -18 111 89 -64 27 -97
-121 -94 90 -76 42 -89 -102 -127
42 -121 -76 -40 127 -60 127 84
-43 -86 -15 86 -36 -76 -108 90
42 59 103 -111 -92 -118 82 120
127 -84 -127 -127 127 40 94 -127
101 -127 -106 127 127 -14 -7 127
-60 -127 127 -127 127 -127 -119 -121
127 -101 -127 -127 -120 -127 -71 127
29 -111 127 127 -70 -127 -97 89
61 127 127 -116 -113 -127 125 127
-53 33 -62 -85 -121 -23 30 -38
127 -20 -74 36 55 -70 -25 -45
00000000: d5eb f9f0 08d9 b1bb e7cf 0941 22b9 71d5
00000010: 8faa 25f9 feb9 92b1 de82 c1eb 4810 601a
00000020: 81a7 f837 1130 8150 b4f2 6792 fddd a96c
00000030: 4b0a e5e5 3a81 81af 3db4 8e6c 26ae fe3e
00000040: cc8f 3b07 0990 81ba fc81 89db ca15 c736
00000050: 1e81 4154 0c49 a27f 8106 7c81 02ea 815e
00000060: e02c 06fc be94 c5ef 58f9 8125 07b9 9bf4
00000070: 81e8 1b0c efb3 dce9 f6e1 c6f4 f713 e709
00000080: 6aaa 4620 0e24 fc10 b302 07b0 ef06 c90f
00000090: ab81 d3d4 f636 6396 e794 ee6f 59c0 1b9f
000000a0: 87a2 5ab4 2aa7 9a81 2a87 b4d8 7fc4 7f54
000000b0: d5aa f156 dcb4 945a 2a3b 6791 a48a 5278
000000c0: 7fac 8181 7f28 5e81 6581 967f 7ff2 f97f
000000d0: c481 7f81 7f81 8987 7f9b 8181 8881 b97f
000000e0: 1d91 7f7f ba81 9f59 3d7f 7f8c 8f81 7d7f
000000f0: cb21 c2ab 87e9 1eda 7fec b624 37ba e7d3

model_1/block_1_project/Conv2D i1 [8, 1, 1, 48]
-17 -2 9 -94 11 27 7 4
5 5 9 -2 100 0 2 7
0 -12 -4 -1 73 -6 -4 2
31 44 11 14 -2 4 6 -127
9 5 3 3 -24 -5 -10 31
11 -28 -6 2 1 -4 7 2
-40 -8 -2 -7 45 29 -26 75
20 4 -27 -17 10 0 21 39
0 41 19 -53 -1 21 127 20
-28 -1 56 1 26 -4 17 -14
13 -11 -5 -17 11 -52 8 1
-9 -8 -79 -8 -37 6 -50 -98
-62 13 -3 9 41 -7 30 21
-5 51 17 -12 3 0 5 53
0 9 -127 23 4 11 6 -17
-31 2 37 3 9 31 23 3
8 -5 -13 -12 12 7 -3 0
39 -5 -27 -1 24 -56 28 15
2 -3 -1 3 -6 22 5 -7
64 16 0 -3 32 0 -32 -4
0 -4 -9 3 -4 -2 2 -20
-13 -5 -6 -1 -11 -5 -1 -8
-45 50 -55 -1 10 0 5 -127
3 3 6 -58 4 -2 0 8
1 -2 92 37 2 -23 -4 -1
-1 -5 -6 -6 -85 0 -16 4
0 13 5 1 70 5 6 -5
-11 34 -1 55 -10 -3 1 103
10 2 -2 -2 15 -9 -5 -22
-6 -127 1 0 -3 -1 -3 -2
-13 43 7 -7 3 48 28 8
-21 31 7 58 28 0 -127 -1
00000000: effe 09a2 0b1b 0704 0505 09fe 6400 0207
00000010: 00f4 fcff 49fa fc02 1f2c 0b0e fe04 0681
00000020: 0905 0303 e8fb f61f 0be4 fa02 01fc 0702
00000030: d8f8 fef9 2d1d e64b 1404 e5ef 0a00 1527
00000040: 0029 13cb ff15 7f14 e4ff 3801 1afc 11f2
00000050: 0df5 fbef 0bcc 0801 f7f8 b1f8 db06 ce9e
00000060: c20d fd09 29f9 1e15 fb33 11f4 0300 0535
00000070: 0009 8117 040b 06ef e102 2503 091f 1703
00000080: 08fb f3f4 0c07 fd00 27fb e5ff 18c8 1c0f
00000090: 02fd ff03 fa16 05f9 4010 00fd 2000 e0fc
000000a0: 00fc f703 fcfe 02ec f3fb faff f5fb fff8
000000b0: d332 c9ff 0a00 0581 0303 06c6 04fe 0008
000000c0: 01fe 5c25 02e9 fcff fffb fafa ab00 f004
000000d0: 000d 0501 4605 06fb f522 ff37 f6fd 0167
000000e0: 0a02 fefe 0ff7 fbea fa81 0100 fdff fdfe
000000f0: f32b 07f9 0330 1c08 eb1f 073a 1c00 81ff

model_1/block_2_expand/Conv2D i1 [48, 1, 1, 8]
79 34 -9 -12 127 35 -30 -31
0 -1 15 127 9 -3 7 13
33 -127 -31 58 -18 -77 92 5
127 -43 -7 25 -11 -28 39 6
8 -50 127 -13 -12 -36 6 -92
49 12 -3 -4 127 1 -2 -6
-20 92 -12 127 23 50 -74 -53
-6 127 -2 1 2 -8 14 -11
127 61 -29 0 -81 -29 11 -51
-127 20 6 12 75 13 -4 -1
-84 -17 12 127 33 29 -17 13
-127 -8 10 -66 23 10 -14 -32
127 16 11 25 -31 -6 3 -50
-17 81 -127 1 19 107 -84 71
-70 -48 -5 127 15 16 -20 -17
-9 127 1 -3 -3 -18 13 -48
-6 -127 -22 -13 -20 -107 89 -7
32 127 1 -8 5 81 -100 -21
-5 54 -127 -4 7 47 -28 66
-115 30 -17 -6 -127 -15 19 35
-127 -19 7 2 70 -25 36 -3
-62 8 -11 0 -127 -10 20 -1
-127 -25 7 -4 83 -28 23 71
-24 -21 -4 -9 4 87 -127 -100
-8 37 -127 3 11 41 -11 80
95 -37 -10 127 -72 -24 9 -48
1 -26 -4 -2 -12 123 127 -29
61 -8 -13 15 127 34 39 -32
3 106 -79 -2 12 71 -17 127
-7 12 -7 -12 3 96 -127 -90
-1 -4 2 -127 -6 -2 -1 -12
-64 8 8 2 -127 8 16 3
00000000: 4f22 f7f4 7f23 e2e1 00ff 0f7f 09fd 070d
00000010: 2181 e13a eeb3 5c05 7fd5 f919 f5e4 2706
00000020: 08ce 7ff3 f4dc 06a4 310c fdfc 7f01 fefa
00000030: ec5c f47f 1732 b6cb fa7f fe01 02f8 0ef5
00000040: 7f3d e300 afe3 0bcd 8114 060c 4b0d fcff
00000050: acef 0c7f 211d ef0d 81f8 0abe 170a f2e0
00000060: 7f10 0b19 e1fa 03ce ef51 8101 136b ac47
00000070: bad0 fb7f 0f10 ecef f77f 01fd fdee 0dd0
00000080: fa81 eaf3 ec95 59f9 207f 01f8 0551 9ceb
00000090: fb36 81fc 072f e442 8d1e effa 81f1 1323
000000a0: 81ed 0702 46e7 24fd c208 f500 81f6 14ff
000000b0: 81e7 07fc 53e4 1747 e8eb fcf7 0457 819c
000000c0: f825 8103 0b29 f550 5fdb f67f b8e8 09d0
000000d0: 01e6 fcfe f47b 7fe3 3df8 f30f 7f22 27e0
000000e0: 036a b1fe 0c47 ef7f f90c f9f4 0360 81a6
000000f0: fffc 0281 fafe fff4 c008 0802 8108 1003

model_1/block_2_depthwise_BN/FusedBatchNormV3;model_1/block_2_depthwise/depthwise;model_1/block_3_depthwise/depthwise i1 [1, 3, 3, 48]
4 -4 21 108 4 83 0 27
18 9 9 8 -10 -9 -43 8
-3 8 -23 -114 -7 -23 127 -10
-2 9 -5 9 -5 4 15 101
20 29 38 -27 1 33 -1 2
17 -69 -9 -9 17 3 -7 -9
127 9 15 -127 28 88 11 10
127 127 7 43 -53 -24 6 8
127 -56 -59 -57 -101 24 -110 14
17 72 -31 -84 23 20 10 -122
6 -61 127 10 -40 -47 -6 116
-80 -98 -29 2 -34 -7 -127 23
-32 -3 7 13 -1 65 4 17
29 9 -14 32 -17 -3 17 4
-104 29 -3 78 -31 -12 -19 -6
-4 -59 -2 30 -15 4 5 -20
9 -24 15 -19 -1 47 41 -13
50 37 -16 10 -42 3 -3 -6
126 6 1 -98 13 -27 35 -17
11 9 -12 54 -8 0 19 -34
-1 -50 -60 -84 10 -74 -126 -18
5 100 -15 -127 -8 32 12 -108
17 -52 -3 127 -2 57 -40 40
-64 -127 38 -88 -44 -14 -13 -4
25 -127 -127 114 -127 -127 -127 -127
-127 -96 127 -127 127 127 36 -127
-84 127 127 -108 127 127 112 127
127 -127 -127 29 -127 -127 94 127
-127 127 -29 -41 127 -127 127 127
127 -78 127 127 127 -121 100 108
54 5 48 -14 5 -61 44 18
-23 14 -104 -8 -2 -41 127 4
00000000: 04fc 156c 0453 001b 1209 0908 f6f7 d508
00000010: fd08 e98e f9e9 7ff6 fe09 fb09 fb04 0f65
00000020: 141d 26e5 0121 ff02 11bb f7f7 1103 f9f7
00000030: 7f09 0f81 1c58 0b0a 7f7f 072b cbe8 0608
00000040: 7fc8 c5c7 9b18 920e 1148 e1ac 1714 0a86
00000050: 06c3 7f0a d8d1 fa74 b09e e302 def9 8117
00000060: e0fd 070d ff41 0411 1d09 f220 effd 1104
00000070: 981d fd4e e1f4 edfa fcc5 fe1e f104 05ec
00000080: 09e8 0fed ff2f 29f3 3225 f00a d603 fdfa
00000090: 7e06 019e 0de5 23ef 0b09 f436 f800 13de
000000a0: ffce c4ac 0ab6 82ee 0564 f181 f820 0c94
000000b0: 11cc fd7f fe39 d828 c081 26a8 d4f2 f3fc
000000c0: 1981 8172 8181 8181 81a0 7f81 7f7f 2481
000000d0: ac7f 7f94 7f7f 707f 7f81 811d 8181 5e7f
000000e0: 817f e3d7 7f81 7f7f 7fb2 7f7f 7f87 646c
000000f0: 3605 30f2 05c3 2c12 e90e 98f8 fed7 7f04

model_1/block_2_project/Conv2D i1 [8, 1, 1, 48]
-71 -2 -38 26 14 -24 6 1
-124 121 -34 122 122 0 72 -21
-8 -34 8 0 -4 -6 -29 -44
24 -95 13 62 0 1 26 -48
-18 -76 106 7 -8 -13 0 -15
127 2 44 -33 -36 32 -8 -9
6 42 125 2 1 -23 6 -86
33 1 18 8 -17 7 -8 -127
15 -70 8 9 -32 34 21 -28
-17 -11 18 -2 20 -2 18 -7
3 14 23 8 -6 -45 77 -72
5 53 -8 24 -10 10 27 -5
5 -41 22 -36 37 33 0 -31
3 3 0 13 -8 50 8 0
-37 127 -26 -28 -15 18 -29 -13
117 -6 -2 -10 -20 -7 4 -43
-9 -15 3 6 -12 2 -16 0
22 -18 -17 0 2 27 -23 -34
1 -83 -3 11 5 -6 -9 -1
-7 -12 19 21 11 -9 47 1
-5 -20 6 25 0 24 -23 1
5 55 -5 5 -5 9 127 2
13 5 3 -5 -26 -14 -3 9
-6 9 -7 30 -3 12 5 34
-103 6 -2 -2 -2 -29 -3 10
43 -45 15 -25 -41 -2 -11 -1
-5 2 -2 30 10 -27 17 8
-11 48 5 112 3 3 -11 -35
1 -127 -42 17 4 -2 -4 1
-54 -9 -17 12 -58 -3 6 10
-29 32 18 11 -39 3 -5 43
25 -4 15 2 0 -43 4 36
00000000: b9fe da1a 0ee8 0601 8479 de7a 7a00 48eb
00000010: f8de 0800 fcfa e3d4 18a1 0d3e 0001 1ad0
00000020: eeb4 6a07 f8f3 00f1 7f02 2cdf dc20 f8f7
00000030: 062a 7d02 01e9 06aa 2101 1208 ef07 f881
00000040: 0fba 0809 e022 15e4 eff5 12fe 14fe 12f9
00000050: 030e 1708 fad3 4db8 0535 f818 f60a 1bfb
00000060: 05d7 16dc 2521 00e1 0303 000d f832 0800
00000070: db7f e6e4 f112 e3f3 75fa fef6 ecf9 04d5
00000080: f7f1 0306 f402 f000 16ee ef00 021b e9de
00000090: 01ad fd0b 05fa f7ff f9f4 1315 0bf7 2f01
000000a0: fbec 0619 0018 e901 0537 fb05 fb09 7f02
000000b0: 0d05 03fb e6f2 fd09 fa09 f91e fd0c 0522
000000c0: 9906 fefe fee3 fd0a 2bd3 0fe7 d7fe f5ff
000000d0: fb02 fe1e 0ae5 1108 f530 0570 0303 f5dd
000000e0: 0181 d611 04fe fc01 caf7 ef0c c6fd 060a
000000f0: e320 120b d903 fb2b 19fc 0f02 00d5 0424

model_1/block_3_expand/Conv2D i1 [48, 1, 1, 8]
-127 4 -1 70 -28 43 23 -34
29 73 52 25 4 -44 127 126
-39 -8 17 -9 -127 -12 9 6
107 -1 -9 -127 -122 2 27 -18
-127 41 -13 -38 70 -10 32 15
-96 -26 29 -12 -127 2 7 93
-35 -127 9 -28 12 4 -18 19
-62 -1 3 93 127 -35 -32 1
63 9 1 -127 -2 -37 -49 -34
-15 -127 -6 -17 4 90 -59 84
-75 -5 -11 8 -127 76 40 -25
112 1 38 13 -47 -49 -34 -127
0 13 43 -11 15 -77 127 51
58 -27 -5 -7 127 113 110 -36
127 64 -14 30 -72 -25 -12 -6
-35 -127 16 -26 7 6 -14 18
-47 1 8 -2 -127 -16 24 10
-23 107 -114 -18 3 -127 88 -101
127 -38 -44 12 -55 24 17 111
127 -38 -18 -17 39 -21 50 -8
127 21 -7 121 6 35 17 -59
18 29 -65 14 -31 69 -127 -63
-127 16 22 -4 -49 -4 -54 -20
-45 -53 -1 19 -127 66 82 -16
127 5 -5 -17 -71 -15 14 -1
27 -17 -6 -24 127 48 50 -29
2 -80 1 -38 -3 -127 80 -41
-17 -127 28 -15 -1 -57 34 -10
-112 33 -47 47 -53 -34 127 91
-11 44 12 10 0 43 -102 -127
127 -17 -17 21 -99 -4 -24 -16
-19 -25 56 -16 23 -111 127 73
00000000: 8104 ff46 e42b 17de 1d49 3419 04d4 7f7e
00000010: d9f8 11f7 81f4 0906 6bff f781 8602 1bee
00000020: 8129 f3da 46f6 200f a0e6 1df4 8102 075d
00000030: dd81 09e4 0c04 ee13 c2ff 035d 7fdd e001
00000040: 3f09 0181 fedb cfde f181 faef 045a c554
00000050: b5fb f508 814c 28e7 7001 260d d1cf de81
00000060: 000d 2bf5 0fb3 7f33 3ae5 fbf9 7f71 6edc
00000070: 7f40 f21e b8e7 f4fa dd81 10e6 0706 f212
00000080: d101 08fe 81f0 180a e96b 8eee 0381 589b
00000090: 7fda d40c c918 116f 7fda eeef 27eb 32f8
000000a0: 7f15 f979 0623 11c5 121d bf0e e145 81c1
000000b0: 8110 16fc cffc caec d3cb ff13 8142 52f0
000000c0: 7f05 fbef b9f1 0eff 1bef fae8 7f30 32e3
000000d0: 02b0 01da fd81 50d7 ef81 1cf1 ffc7 22f6
000000e0: 9021 d12f cbde 7f5b f52c 0c0a 002b 9a81
000000f0: 7fef ef15 9dfc e8f0 ede7 38f0 1791 7f49

model_1/block_3_depthwise_BN/FusedBatchNormV3;model_1/block_3_depthwise/depthwise i1 [1, 3, 3, 48]
72 -90 98 71 55 -34 104 -65
58 -89 -78 48 52 -42 -70 -89
101 78 49 78 67 -73 -84 50
-33 -40 -61 -64 -67 61 -64 -114
-16 41 68 64 -66 55 -49 -24
50 -74 54 62 -90 12 74 -34
82 -96 127 85 -77 -68 -55 -86
93 -100 -63 72 80 -108 -94 93
-38 95 82 127 84 -115 54 71
-51 -76 -67 -79 56 78 -31 -127
-86 77 81 84 -82 84 -81 -17
75 -95 79 89 -72 -127 94 -102
34 -46 69 39 20 -41 -45 -40
41 -29 6 34 29 -78 -52 0
-53 38 32 70 35 -54 33 26
-27 -44 -43 -24 32 30 87 -90
-84 41 34 33 -32 41 -36 -11
39 -41 33 42 -7 -9 36 -74
93 -111 -42 92 56 -82 127 -89
87 -114 -71 81 85 -110 -13 -127
127 107 75 -36 84 108 -127 72
74 -74 -95 -99 -127 87 -71 -9
-90 69 105 98 -86 80 -80 89
84 -102 85 90 -88 109 94 -91
127 -127 -66 127 -127 -127 -90 -127
127 -127 -127 127 127 -127 -21 98
-65 127 127 -49 127 127 69 127
127 -127 -127 -127 54 127 -29 16
-127 127 127 127 -127 127 -127 127
127 -127 127 127 -127 -10 127 -127
63 -78 -35 66 38 -63 -46 -62
56 -39 -58 58 49 -52 -16 11
00000000: 48a6 6247 37de 68bf 3aa7 b230 34d6 baa7
00000010: 654e 314e 43b7 ac32 dfd8 c3c0 bd3d c08e
00000020: f029 4440 be37 cfe8 32b6 363e a60c 4ade
00000030: 52a0 7f55 b3bc c9aa 5d9c c148 5094 a25d
00000040: da5f 527f 548d 3647 cdb4 bdb1 384e e181
00000050: aa4d 5154 ae54 afef 4ba1 4f59 b881 5e9a
00000060: 22d2 4527 14d7 d3d8 29e3 0622 1db2 cc00
00000070: cb26 2046 23ca 211a e5d4 d5e8 201e 57a6
00000080: ac29 2221 e029 dcf5 27d7 212a f9f7 24b6
00000090: 5d91 d65c 38ae 7fa7 578e b951 5592 f381
000000a0: 7f6b 4bdc 546c 8148 4ab6 a19d 8157 b9f7
000000b0: a645 6962 aa50 b059 549a 555a a86d 5ea5
000000c0: 7f81 be7f 8181 a681 7f81 817f 7f81 eb62
000000d0: bf7f 7fcf 7f7f 457f 7f81 8181 367f e310
000000e0: 817f 7f7f 817f 817f 7f81 7f7f 81f6 7f81
000000f0: 3fb2 dd42 26c1 d2c2 38d9 c63a 31cc f00b

model_1/block_3_project/Conv2D i1 [16, 1, 1, 48]
-12 -7 -21 23 26 -8 10 94
-51 11 30 -7 21 -24 -10 12
17 -10 -2 1 63 -11 24 127
-23 77 -9 -18 25 -18 31 -22
-24 53 22 -42 15 49 13 -15
-95 -30 22 44 38 27 -114 -45
-42 -9 15 12 -37 3 5 61
-58 -32 9 -44 -25 -13 -2 -5
-27 115 -17 13 2 4 -35 -15
22 -34 12 18 -28 -88 -36 14
-23 -11 37 -4 1 -47 5 12
-23 -30 127 7 6 0 14 -16
-27 -10 -11 -33 -3 -67 3 -24
2 10 19 23 15 14 -15 9
-8 -23 -21 -12 -7 4 -7 -127
-10 75 -11 0 -6 -30 -4 4
-1 60 14 -2 30 7 31 2
-39 7 -21 -4 -5 -13 15 7
-7 31 3 -29 4 -2 0 0
-17 -2 -4 40 -127 4 -2 -6
5 2 -13 0 -28 9 6 18
-5 -9 -2 25 -6 24 5 10
10 1 17 18 -11 21 40 5
11 5 23 -31 6 -7 1 16
37 -33 5 13 23 27 21 -21
-30 3 -17 -19 -3 9 9 17
20 -11 -75 7 -3 14 22 75
-3 -29 6 48 3 -73 21 6
14 -35 34 -127 16 37 -1 18
-17 20 10 -21 -13 -19 5 1
32 0 -10 54 -3 -10 -2 26
6 -5 40 9 8 54 -3 -4
00000000: f4f9 eb17 1af8 0a5e cd0b 1ef9 15e8 f60c
00000010: 11f6 fe01 3ff5 187f e94d f7ee 19ee 1fea
00000020: e835 16d6 0f31 0df1 a1e2 162c 261b 8ed3
00000030: d6f7 0f0c db03 053d c6e0 09d4 e7f3 fefb
00000040: e573 ef0d 0204 ddf1 16de 0c12 e4a8 dc0e
00000050: e9f5 25fc 01d1 050c e9e2 7f07 0600 0ef0
00000060: e5f6 f5df fdbd 03e8 020a 1317 0f0e f109
00000070: f8e9 ebf4 f904 f981 f64b f500 fae2 fc04
00000080: ff3c 0efe 1e07 1f02 d907 ebfc fbf3 0f07
00000090: f91f 03e3 04fe 0000 effe fc28 8104 fefa
000000a0: 0502 f300 e409 0612 fbf7 fe19 fa18 050a
000000b0: 0a01 1112 f515 2805 0b05 17e1 06f9 0110
000000c0: 25df 050d 171b 15eb e203 efed fd09 0911
000000d0: 14f5 b507 fd0e 164b fde3 0630 03b7 1506
000000e0: 0edd 2281 1025 ff12 ef14 0aeb f3ed 0501
000000f0: 2000 f636 fdf6 fe1a 06fb 2809 0836 fdfc

model_1/block_4_expand/Conv2D i1 [96, 1, 1, 16]
62 -39 117 127 86 -15 48 -42
88 -12 -68 -82 36 114 -56 -91
39 82 -23 -15 94 -30 5 31
41 75 -24 127 -6 -39 80 -74
26 -49 13 16 -63 48 -37 80
-67 -71 -13 94 -23 -127 75 -100
112 127 -17 31 -127 -33 -80 -44
0 -10 91 -68 -53 84 -40 -31
-26 -22 -6 25 -30 14 -11 17
-41 -39 -4 1 -12 -127 64 16
108 -49 -18 -25 -2 -101 -9 40
2 19 -127 -3 30 -16 -5 40
-121 -84 0 109 -70 -10 -37 53
-122 -80 -78 -93 54 41 21 127
-38 18 -91 55 72 -127 -14 51
34 -41 18 8 -11 29 -52 9
22 -36 -13 -8 5 20 -59 -62
1 9 -72 15 -127 -1 -2 30
30 -72 39 123 5 5 -26 -80
127 -98 12 -46 0 54 -39 18
-94 -55 -21 -59 127 42 11 33
68 -92 -98 15 71 -124 -114 80
41 3 -127 16 46 13 -27 26
-18 -16 -4 -18 11 10 -24 -2
109 -42 -8 1 36 -68 -48 -52
49 5 -127 -20 -66 -44 47 36
16 -30 22 -41 80 33 -45 -127
9 -68 21 -6 -53 -52 24 -30
-56 33 -92 -48 82 -127 67 -57
56 59 -12 -116 34 123 -12 27
19 3 55 59 36 -53 -26 5
27 -85 -61 -20 -127 -37 -41 70
00000000: 3ed9 757f 56f1 30d6 58f4 bcae 2472 c8a5
00000010: 2752 e9f1 5ee2 051f 294b e87f fad9 50b6
00000020: 1acf 0d10 c130 db50 bdb9 f35e e981 4b9c
00000030: 707f ef1f 81df b0d4 00f6 5bbc cb54 d8e1
00000040: e6ea fa19 e20e f511 d7d9 fc01 f481 4010
00000050: 6ccf eee7 fe9b f728 0213 81fd 1ef0 fb28
00000060: 87ac 006d baf6 db35 86b0 b2a3 3629 157f
00000070: da12 a537 4881 f233 22d7 1208 f51d cc09
00000080: 16dc f3f8 0514 c5c2 0109 b80f 81ff fe1e
00000090: 1eb8 277b 0505 e6b0 7f9e 0cd2 0036 d912
000000a0: a2c9 ebc5 7f2a 0b21 44a4 9e0f 4784 8e50
000000b0: 2903 8110 2e0d e51a eef0 fcee 0b0a e8fe
000000c0: 6dd6 f801 24bc d0cc 3105 81ec bed4 2f24
000000d0: 10e2 16d7 5021 d381 09bc 15fa cbcc 18e2
000000e0: c821 a4d0 5281 43c7 383b f48c 227b f41b
000000f0: 1303 373b 24cb e605 1bab c3ec 81db d746

model_1/block_4_depthwise_BN/FusedBatchNormV3;model_1/block_4_depthwise/depthwise;model_1/block_6_expand/Conv2D i1 [1, 3, 3, 96]
-17 6 -21 105 -17 23 -64 -54
18 -6 102 -9 7 -8 -5 56
4 16 -40 2 74 2 34 -33
2 16 42 48 21 13 23 50
-3 27 9 -14 5 50 -57 -26
21 9 25 15 -81 -61 26 -6
-11 -21 -8 -7 50 6 -9 1
-3 -35 29 -33 28 0 127 28
-16 -10 11 -52 65 37 5 -10
78 -34 73 6 16 -127 29 66
4 17 127 -14 38 30 -28 -19
33 -6 -13 82 1 20 -2 11
-48 14 -9 11 52 -8 -12 -127
40 13 -127 -5 -16 -13 4 93
17 -29 -14 -17 73 -95 127 28
-60 -31 -107 -17 28 37 -49 19
126 12 -14 -1 -24 127 -60 -127
9 -19 -29 14 47 -127 127 -45
-77 50 49 6 40 -63 30 54
37 44 -98 85 127 36 8 -20
43 -37 -94 -1 37 -29 -16 43
-51 -49 107 -2 -29 -59 -33 66
-66 57 -12 8 -10 48 55 -40
-28 51 -13 73 -127 -30 24 -127
0 -3 -24 -72 7 19 36 21
-3 -2 6 62 1 -13 -11 2
-15 18 -19 15 7 24 24 -33
0 -31 11 12 -4 8 46 -79
44 18 8 -22 11 3 -32 -21
8 2 -16 7 23 -34 20 1
7 -9 5 -5 6 6 -5 8
-8 45 9 -3 10 -16 5 -18
00000000: ef06 eb69 ef17 c0ca 12fa 66f7 07f8 fb38
00000010: 0410 d802 4a02 22df 0210 2a30 150d 1732
00000020: fd1b 09f2 0532 c7e6 1509 190f afc3 1afa
00000030: f5eb f8f9 3206 f701 fddd 1ddf 1c00 7f1c
00000040: f0f6 0bcc 4125 05f6 4ede 4906 1081 1d42
00000050: 0411 7ff2 261e e4ed 21fa f352 0114 fe0b
00000060: d00e f70b 34f8 f481 280d 81fb f0f3 045d
00000070: 11e3 f2ef 49a1 7f1c c4e1 95ef 1c25 cf13
00000080: 7e0c f2ff e87f c481 09ed e30e 2f81 7fd3
00000090: b332 3106 28c1 1e36 252c 9e55 7f24 08ec
000000a0: 2bdb a2ff 25e3 f02b cdcf 6bfe e3c5 df42
000000b0: be39 f408 f630 37d8 e433 f349 81e2 1881
000000c0: 00fd e8b8 0713 2415 fdfe 063e 01f3 f502
000000d0: f112 ed0f 0718 18df 00e1 0b0c fc08 2eb1
000000e0: 2c12 08ea 0b03 e0eb 0802 f007 17de 1401
000000f0: 07f7 05fb 0606 fb08 f82d 09fd 0af0 05ee

model_1/block_4_project/Conv2D i1 [16, 1, 1, 96]
0 20 -8 13 42 82 -39 -27
52 5 17 16 -7 16 22 80
-4 -3 -2 2 107 -70 -4 -15
-26 -28 -25 -99 -15 -6 57 43
127 -26 7 -4 0 -13 -21 14
-32 14 9 -31 1 -40 -19 31
-6 15 -13 -4 -40 -5 -1 -14
33 24 -27 -43 -47 14 -2 -16
18 5 59 -1 12 0 4 -20
-65 14 -8 -8 -14 -85 1 -21
32 -22 -71 -51 36 -8 5 31
-15 -7 10 -31 11 19 -13 125
48 -95 34 93 -20 -81 -8 -46
-60 -109 -13 29 9 -62 -52 -84
-87 -31 18 35 -33 -110 -28 39
127 -91 -63 5 -36 122 -30 83
4 24 -56 31 -17 -16 48 -30
4 -88 75 -31 -59 12 81 7
25 24 17 -74 78 -76 40 -10
7 16 -26 -103 -1 -62 -9 -80
-8 -83 53 30 24 52 -72 -13
-109 32 -22 62 8 87 8 -17
44 2 -75 52 -91 70 -6 61
-42 3 40 6 12 -73 46 -6
15 25 11 -33 -3 -5 -12 45
44 -3 9 56 -7 8 34 10
-12 -13 13 -9 -21 -43 1 -34
3 -9 -16 15 2 26 80 -49
22 -42 -36 44 2 127 -35 1
-10 -25 -12 24 -27 -43 -55 21
26 18 -30 -23 35 2 -21 -32
-20 -2 -11 14 19 12 51 76
00000000: 0014 f80d 2a52 d9e5 3405 1110 f910 1650
00000010: fcfd fe02 6bba fcf1 e6e4 e79d f1fa 392b
00000020: 7fe6 07fc 00f3 eb0e e00e 09e1 01d8 ed1f
00000030: fa0f f3fc d8fb fff2 2118 e5d5 d10e fef0
00000040: 1205 3bff 0c00 04ec bf0e f8f8 f2ab 01eb
00000050: 20ea b9cd 24f8 051f f1f9 0ae1 0b13 f37d
00000060: 30a1 225d ecaf f8d2 c493 f31d 09c2 ccac
00000070: a9e1 1223 df92 e427 7fa5 c105 dc7a e253
00000080: 0418 c81f eff0 30e2 04a8 4be1 c50c 5107
00000090: 1918 11b6 4eb4 28f6 0710 e699 ffc2 f7b0
000000a0: f8ad 351e 1834 b8f3 9320 ea3e 0857 08ef
000000b0: 2c02 b534 a546 fa3d d603 2806 0cb7 2efa
000000c0: 0f19 0bdf fdfb f42d 2cfd 0938 f908 220a
000000d0: f4f3 0df7 ebd5 01de 03f7 f00f 021a 50cf
000000e0: 16d6 dc2c 027f dd01 f6e7 f418 e5d5 c915
000000f0: 1a12 e2e9 2302 ebe0 ecfe f50e 130c 334c

model_1/block_5_expand/Conv2D i1 [96, 1, 1, 16]
4 50 -9 61 26 49 -4 0
39 24 -44 107 6 -109 50 -127
29 44 -9 -26 2 -24 127 -101
0 83 -5 -25 1 -51 34 19
-92 22 -63 -26 22 -13 54 66
-51 64 127 -24 -46 -6 49 -12
-48 69 54 47 -49 55 55 127
-8 49 -87 -5 22 -80 -78 -56
-7 -11 30 96 -33 72 -13 49
-6 -29 -5 -9 25 9 -127 -52
-16 -32 48 -10 33 -30 -31 -8
-74 80 -25 -127 10 21 -56 -7
-1 -7 19 -15 33 47 -64 -37
-3 12 41 -1 127 -28 -7 -16
34 8 127 -8 -22 -30 10 -14
-57 29 -78 -34 5 5 43 -20
16 33 64 54 -15 105 8 56
27 -14 11 -93 -36 -9 -127 -55
25 -127 54 49 3 -29 -5 17
117 17 69 -9 -17 5 -114 -19
-11 -95 -20 -61 -126 -20 -28 63
89 122 84 -19 -42 73 127 -33
40 -30 -1 -83 14 -40 -105 -127
-50 44 -14 -26 43 -20 31 -62
-1 20 -4 -8 -40 -30 -100 -16
-39 -77 -20 16 -5 127 75 27
-77 -90 -41 68 13 -117 -26 -54
69 -10 -76 -14 62 80 127 39
-7 -47 59 21 7 37 0 127
17 51 25 -50 3 31 -76 98
27 -46 12 52 26 7 121 -2
3 -127 36 -32 1 -30 -3 -50
00000000: 0432 f73d 1a31 fc00 2718 d46b 0693 3281
00000010: 1d2c f7e6 02e8 7f9b 0053 fbe7 01cd 2213
00000020: a416 c1e6 16f3 3642 cd40 7fe8 d2fa 31f4
00000030: d045 362f cf37 377f f831 a9fb 16b0 b2c8
00000040: f9f5 1e60 df48 f331 fae3 fbf7 1909 81cc
00000050: f0e0 30f6 21e2 e1f8 b650 e781 0a15 c8f9
00000060: fff9 13f1 212f c0db fd0c 29ff 7fe4 f9f0
00000070: 2208 7ff8 eae2 0af2 c71d b2de 0505 2bec
00000080: 1021 4036 f169 0838 1bf2 0ba3 dcf7 81c9
00000090: 1981 3631 03e3 fb11 7511 45f7 ef05 8eed
000000a0: f5a1 ecc3 82ec e43f 597a 54ed d649 7fdf
000000b0: 28e2 ffad 0ed8 9781 ce2c f2e6 2bec 1fc2
000000c0: ff14 fcf8 d8e2 9cf0 d9b3 ec10 fb7f 4b1b
000000d0: b3a6 d744 0d8b e6ca 45f6 b4f2 3e50 7f27
000000e0: f9d1 3b15 0725 007f 1133 19ce 031f b462
000000f0: 1bd2 0c34 1a07 79fe 0381 24e0 01e2 fdce

model_1/block_5_depthwise_BN/FusedBatchNormV3;model_1/block_5_depthwise/depthwise;model_1/block_6_expand/Conv2D i1 [1, 3, 3, 96]
-47 -72 -8 127 22 78 76 -56
-14 -18 -14 -5 -30 0 36 2
-8 -44 25 21 17 -127 127 4
-81 9 51 -28 -127 -127 39 24
12 28 62 -21 -30 -10 28 -8
-12 27 -110 73 24 -70 38 42
-19 51 -23 18 10 -8 16 49
-91 -49 -58 -20 -10 -1 15 38
64 -26 76 13 -5 14 18 127
24 23 25 -1 -10 19 127 -4
-17 13 -28 21 120 19 -80 -17
5 -32 -14 -39 3 -26 -15 27
127 -127 79 106 -42 127 49 -114
72 3 -17 127 127 -98 -14 17
11 127 127 -113 127 -72 80 66
-127 -113 -66 -34 -56 45 -59 -18
-88 55 -127 -87 -44 -14 -51 58
-1 127 127 82 -51 -114 -109 -52
-15 -127 45 85 70 -31 44 85
-48 41 -76 -115 -44 -43 -61 68
69 -61 30 29 -77 30 -20 90
121 127 13 19 2 59 -35 51
62 127 127 -23 -6 76 -111 127
-112 -100 6 -127 -87 -127 -38 107
-75 -11 31 -82 15 -27 61 -6
83 -35 -27 19 -20 -5 -9 -10
-6 -16 8 -5 -23 -104 29 -3
-119 93 8 -54 115 48 -14 10
0 12 15 -31 -9 34 18 10
25 13 -122 66 17 -18 37 12
-15 10 -15 5 -5 1 -4 23
-66 6 -32 50 3 40 36 -1
00000000: d1b8 f87f 164e 4cc8 f2ee f2fb e200 2402
00000010: f8d4 1915 1181 7f04 af09 33e4 8181 2718
00000020: 0c1c 3eeb e2f6 1cf8 f41b 9249 18ba 262a
00000030: ed33 e912 0af8 1031 a5cf c6ec f6ff 0f26
00000040: 40e6 4c0d fb0e 127f 1817 19ff f613 7ffc
00000050: ef0d e415 7813 b0ef 05e0 f2d9 03e6 f11b
00000060: 7f81 4f6a d67f 318e 4803 ef7f 7f9e f211
00000070: 0b7f 7f8f 7fb8 5042 818f bede c82d c5ee
00000080: a837 81a9 d4f2 cd3a ff7f 7f52 cd8e 93cc
00000090: f181 2d55 46e1 2c55 d029 b48d d4d5 c344
000000a0: 45c3 1e1d b31e ec5a 797f 0d13 023b dd33
000000b0: 3e7f 7fe9 fa4c 917f 909c 0681 a981 da6b
000000c0: b5f5 1fae 0fe5 3dfa 53dd e513 ecfb f7f6
000000d0: faf0 08fb e998 1dfd 895d 08ca 7330 f20a
000000e0: 000c 0fe1 f722 120a 190d 8642 11ee 250c
000000f0: f10a f105 fb01 fc17 be06 e032 0328 24ff

model_1/block_5_project/Conv2D i1 [16, 1, 1, 96]
-14 -17 -6 -26 24 -5 -50 2
17 -1 -13 -1 -15 -14 -23 14
-13 2 -2 3 12 -36 3 -7
0 17 3 127 27 -38 41 -14
-6 4 1 0 -13 23 -36 0
-17 10 -2 48 7 14 11 10
22 -3 -4 1 11 -15 -14 78
9 7 -31 -33 -12 24 -4 -29
-46 -62 -23 41 3 11 18 -12
-4 -41 -7 -22 -22 16 5 0
-17 -29 18 12 -8 -19 -8 -96
-4 -23 11 -8 48 -33 -26 -16
34 -72 -108 -82 127 -26 104 35
-27 -97 -73 -4 8 2 -75 42
-91 21 47 35 14 54 -23 -49
23 -15 -22 -119 50 -24 -77 49
-17 30 17 6 15 3 5 14
-19 32 -52 -23 -46 91 8 -1
22 -95 7 -55 -21 38 72 2
-77 -36 -35 -49 20 -21 -4 -58
-107 116 -54 -41 -6 -39 -32 11
53 -124 -32 -19 28 -64 37 6
-8 -30 30 4 -43 52 -20 21
45 -36 -15 17 27 -6 17 127
21 83 -92 -22 105 106 -2 84
13 -108 12 -33 -8 18 17 45
-10 -17 -54 71 22 -1 93 0
65 35 -14 -21 37 1 52 -61
61 25 -42 66 -127 -77 49 33
23 -81 23 -52 48 -34 23 93
-25 -11 -7 20 105 -9 -10 91
13 15 45 13 54 24 56 -40
00000000: f2ef fae6 18fb ce02 11ff f3ff f1f2 e90e
00000010: f302 fe03 0cdc 03f9 0011 037f 1bda 29f2
00000020: fa04 0100 f317 dc00 ef0a fe30 070e 0b0a
00000030: 16fd fc01 0bf1 f24e 0907 e1df f418 fce3
00000040: d2c2 e929 030b 12f4 fcd7 f9ea ea10 0500
00000050: efe3 120c f8ed f8a0 fce9 0bf8 30df e6f0
00000060: 22b8 94ae 7fe6 6823 e59f b7fc 0802 b52a
00000070: a515 2f23 0e36 e9cf 17f1 ea89 32e8 b331
00000080: ef1e 1106 0f03 050e ed20 cce9 d25b 08ff
00000090: 16a1 07c9 eb26 4802 b3dc ddcf 14eb fcc6
000000a0: 9574 cad7 fad9 e00b 3584 e0ed 1cc0 2506
000000b0: f8e2 1e04 d534 ec15 2ddc f111 1bfa 117f
000000c0: 1553 a4ea 696a fe54 0d94 0cdf f812 112d
000000d0: f6ef ca47 16ff 5d00 4123 f2eb 2501 34c3
000000e0: 3d19 d642 81b3 3121 17af 17cc 30de 175d
000000f0: e7f5 f914 69f7 f65b 0d0f 2d0d 3618 38d8

model_1/block_6_expand/Conv2D i1 [96, 1, 1, 16]
-27 92 9 -127 -26 -26 -35 -50
-25 16 0 64 23 -59 -14 51
-30 14 -55 3 -33 -22 26 -79
65 51 -50 24 5 7 36 -127
-17 17 -26 54 18 27 -35 -51
127 -15 -4 18 1 94 -65 8
34 -46 10 -111 1 -21 -12 11
107 2 68 26 15 42 44 127
-101 52 15 59 1 -29 -3 42
9 14 24 -20 -127 -8 -33 24
8 53 101 15 7 77 -61 74
-42 75 -15 -20 35 -34 -127 9
22 -40 99 -127 43 -10 -49 87
-79 -88 39 -44 14 74 -7 85
30 127 -18 -75 114 -2 -9 -59
122 77 -37 8 7 -30 71 58
15 -93 9 -92 24 -63 20 -90
23 53 64 -12 1 127 74 62
-6 -24 0 127 42 -5 41 -63
-61 111 32 -21 -27 -67 -17 -12
8 25 -56 -127 29 -3 -21 28
19 -40 14 -38 -13 -53 -14 39
11 16 34 -21 80 -24 105 -52
-92 55 -2 41 -1 127 -74 -41
66 -14 -127 -49 33 -79 27 16
17 62 -83 -53 -49 122 -7 37
-19 5 -23 14 8 -127 -2 9
6 -16 2 1 13 -8 6 6
37 -38 112 -28 41 16 -127 -79
-9 -44 40 29 4 -57 -21 -42
-69 8 -32 -29 -34 16 127 53
-21 46 80 -9 -2 83 36 -13
00000000: e55c 0981 e6e6 ddce e710 0040 17c5 f233
00000010: e20e c903 dfea 1ab1 4133 ce18 0507 2481
00000020: ef11 e636 121b ddcd 7ff1 fc12 015e bf08
00000030: 22d2 0a91 01eb f40b 6b02 441a 0f2a 2c7f
00000040: 9b34 0f3b 01e3 fd2a 090e 18ec 81f8 df18
00000050: 0835 650f 074d c34a d64b f1ec 23de 8109
00000060: 16d8 6381 2bf6 cf57 b1a8 27d4 0e4a f955
00000070: 1e7f eeb5 72fe f7c5 7a4d db08 07e2 473a
00000080: 0fa3 09a4 18c1 14a6 1735 40f4 017f 4a3e
00000090: fae8 007f 2afb 29c1 c36f 20eb e5bd eff4
000000a0: 0819 c881 1dfd eb1c 13d8 0eda f3cb f227
000000b0: 0b10 22eb 50e8 69cc a437 fe29 ff7f b6d7
000000c0: 42f2 81cf 21b1 1b10 113e adcb cf7a f925
000000d0: ed05 e90e 0881 fe09 06f0 0201 0df8 0606
000000e0: 25da 70e4 2910 81b1 f7d4 281d 04c7 ebd6
000000f0: bb08 e0e3 de10 7f35 eb2e 50f7 fe53 24f3

model_1/head/Conv2D i1 [32, 1, 1, 96]
23 50 36 -91 -71 19 -2 76
-28 -44 -119 -110 -118 122 -56 52
44 92 3 7 -40 -104 -38 30
90 -107 2 116 65 -82 73 0
-77 92 33 -77 -23 13 -94 -21
-105 -45 108 -67 73 -18 -88 111
-105 101 -92 28 -37 85 6 59
-70 -101 -4 34 -12 95 47 -127
74 -121 -105 54 55 -99 -29 126
-65 40 -39 116 -46 -56 -31 -48
-118 62 73 30 -48 -68 -64 -55
31 42 19 57 -91 -95 -52 41
89 5 77 70 19 -86 3 124
53 69 -79 69 -114 -106 28 -82
-65 -36 6 -42 114 95 -88 -75
36 -15 -42 -71 81 38 -29 -77
-87 -87 -61 -83 32 -66 -52 16
6 112 1 27 40 -2 -26 43
17 -127 -10 -55 -17 -109 -63 -106
38 73 107 6 60 -64 -48 -43
123 -19 4 101 67 107 63 119
5 26 57 38 62 -75 127 25
-90 110 -61 79 30 15 -93 27
-58 -65 63 -41 -46 4 46 38
1 -70 -80 -117 -31 18 82 6
35 -57 -59 -46 65 88 -63 -114
-97 42 -56 45 -85 -47 33 34
-84 83 -35 -41 -18 -28 -79 41
48 -67 52 -5 -78 28 -68 78
66 -24 123 86 -53 -11 57 33
-11 -51 13 100 -107 -80 11 -68
-59 8 83 114 112 82 -57 108
00000000: 1732 24a5 b913 fe4c e4d4 8992 8a7a c834
00000010: 2c5c 0307 d898 da1e 5a95 0274 41ae 4900
00000020: b35c 21b3 e90d a2eb 97d3 6cbd 49ee a86f
00000030: 9765 a41c db55 063b ba9b fc22 f45f 2f81
00000040: 4a87 9736 379d e37e bf28 d974 d2c8 e1d0
00000050: 8a3e 491e d0bc c0c9 1f2a 1339 a5a1 cc29
00000060: 5905 4d46 13aa 037c 3545 b145 8e96 1cae
00000070: bfdc 06d6 725f a8b5 24f1 d6b9 5126 e3b3
00000080: a9a9 c3ad 20be cc10 0670 011b 28fe e62b
00000090: 1181 f6c9 ef93 c196 2649 6b06 3cc0 d0d5
000000a0: 7bed 0465 436b 3f77 051a 3926 3eb5 7f19
000000b0: a66e c34f 1e0f a31b c6bf 3fd7 d204 2e26
000000c0: 01ba b08b e112 5206 23c7 c5d2 4158 c18e
000000d0: 9f2a c82d abd1 2122 ac53 ddd7 eee4 b129
000000e0: 30bd 34fb b21c bc4e 42e8 7b56 cbf5 3921
000000f0: f5cd 0d64 95b0 0bbc c508 5372 7052 c76c

model_1/logits/Conv2D i1 [4, 1, 1, 32]
-49 -28 62 119 68 -114 124 67
-127 54 63 89 -35 48 -52 31
-33 -5 25 41 -5 56 -13 -67
83 -24 -54 74 -36 22 38 -38
89 -92 22 -5 56 -89 -96 18
-108 110 -68 -14 103 -86 53 103
35 -60 -86 -49 -30 65 93 127
-107 88 127 -85 -19 -75 -36 -44
-6 -105 10 -1 -94 -53 -91 -24
20 18 -38 -54 85 -127 -88 13
102 50 -109 87 -26 15 -47 -29
48 -115 106 -49 -106 106 103 103
127 -80 106 -58 -101 63 -34 90
91 80 4 39 -12 -92 98 -111
12 58 45 -18 -13 70 -77 52
-57 -101 35 20 -69 100 -24 -116
00000000: cfe4 3e77 448e 7c43 8136 3f59 dd30 cc1f
00000010: dffb 1929 fb38 f3bd 53e8 ca4a dc16 26da
00000020: 59a4 16fb 38a7 a012 946e bcf2 67aa 3567
00000030: 23c4 aacf e241 5d7f 9558 7fab edb5 dcd4
00000040: fa97 0aff a2cb a5e8 1412 daca 5581 a80d
00000050: 6632 9357 e60f d1e3 308d 6acf 966a 6767
00000060: 7fb0 6ac6 9b3f de5a 5b50 0427 f4a4 6291
00000070: 0c3a 2dee f346 b334 c79b 2314 bb64 e88c
