96x96-0.35-Support-OpenMV-H7-and-OpenMV-H7-Plus/trained.tflite (tflite, 57160 bytes, 21 tensors)

model_1/Conv1/Conv2D i1 [16, 3, 3, 3]
0 0 0 0 0 0 0 0
0 0 0 0 0 0 0 0
0 0 0 0 0 0 0 0
0 0 0 59 -13 37 4 -29
26 -127 -125 -59 11 -12 8 -13
-2 7 13 -39 17 3 12 9
7 2 11 57 -27 27 30 -6
-5 71 116 6 31 -46 -1 12
14 2 66 127 -23 11 -12 -14
48 -63 22 71 -41 -18 25 -59
8 6 39 7 33 96 20 -2
1 -13 22 45 10 69 127 24
-14 -25 -8 5 5 3 26 19
-2 -2 -9 -9 34 71 -40 3
64 -44 -25 7 -28 39 94 8
18 111 -12 24 64 -43 48 94
-1 32 127 -30 -31 37 -9 -3
-8 -121 -11 -5 -101 -8 24 -26
-7 -53 -127 -8 -49 -109 -6 8
-23 -7 8 -8 0 -2 -1 -1
10 -9 26 -62 36 47 -88 42
9 -21 12 38 -94 65 64 -127
75 8 -27 22 20 -33 17 13
-44 29 -12 10 5 -28 23 10
-107 -30 6 -14 33 8 -14 -4
4 -127 -84 -3 6 5 11 -21
30 -8 -9 13 2 -9 33 3
126 126 80 124 127 77 123 125
80 125 127 82 124 125 84 104
124 83 122 125 118 113 125 116
87 92 115 -27 -6 5 -20 -9
-4 1 3 -10 97 115 -10 76
00000000: 0000 0000 0000 0000 0000 0000 0000 0000
00000010: 0000 0000 0000 0000 0000 003b f325 04e3
00000020: 1a81 83c5 0bf4 08f3 fe07 0dd9 1103 0c09
00000030: 0702 0b39 e51b 1efa fb47 7406 1fd2 ff0c
00000040: 0e02 427f e90b f4f2 30c1 1647 d7ee 19c5
00000050: 0806 2707 2160 14fe 01f3 162d 0a45 7f18
00000060: f2e7 f805 0503 1a13 fefe f7f7 2247 d803
00000070: 40d4 e707 e427 5e08 126f f418 40d5 305e
00000080: ff20 7fe2 e125 f7fd f887 f5fb 9bf8 18e6
00000090: f9cb 81f8 cf93 fa08 e9f9 08f8 00fe ffff
000000a0: 0af7 1ac2 242f a82a 09eb 0c26 a241 4081
000000b0: 4b08 e516 14df 110d d41d f40a 05e4 170a
000000c0: 95e2 06f2 2108 f2fc 0481 acfd 0605 0beb
000000d0: 1ef8 f70d 02f7 2103 7e7e 507c 7f4d 7b7d
000000e0: 507d 7f52 7c7d 5468 7c53 7a7d 7671 7d74
000000f0: 575c 73e5 fa05 ecf7 fc01 03f6 6173 f64c

model_1/expanded_conv_depthwise_BN/FusedBatchNormV3;model_1/expanded_conv_depthwise/depthwise;model_1/block_5_project/Conv2D i1 [1, 3, 3, 16]
-108 18 -82 -127 38 -66 80 -76
-90 -3 -8 29 -127 5 54 -73
51 25 -127 127 127 -127 127 -127
-85 127 -127 51 -105 5 127 -25
24 -24 89 -2 -73 69 -94 77
-95 -27 3 -16 61 1 -102 -29
-127 127 -23 13 -44 17 -28 13
-28 0 3 -110 -49 8 -30 -14
-78 -42 -58 -15 -8 -25 8 -28
-108 -89 21 -12 -104 -127 1 23
14 1 63 2 2 35 -25 33
-127 6 -2 1 -21 12 -4 43
-115 -73 68 2 -7 41 -39 51
-76 0 -1 5 40 2 -27 23
23 -4 30 -2 -28 42 -33 20
-125 -13 -1 85 -58 0 -29 -111
21 -7 18 0 4 16 9 22
-115 4 -1 -127 107 3 17 -127
00000000: 9412 ae81 26be 50b4 a6fd f81d 8105 36b7
00000010: 3319 817f 7f81 7f81 ab7f 8133 9705 7fe7
00000020: 18e8 59fe b745 a24d a1e5 03f0 3d01 9ae3
00000030: 817f e90d d411 e40d e400 0392 cf08 e2f2
00000040: b2d6 c6f1 f8e7 08e4 94a7 15f4 9881 0117
00000050: 0e01 3f02 0223 e721 8106 fe01 eb0c fc2b
00000060: 8db7 4402 f929 d933 b400 ff05 2802 e517
00000070: 17fc 1efe e42a df14 83f3 ff55 c600 e391
00000080: 15f9 1200 0410 0916 8d04 ff81 6b03 1181

model_1/expanded_conv_project/Conv2D i1 [8, 1, 1, 16]
0 -22 6 -2 126 -4 -6 1
-2 -127 -93 -5 0 123 1 0
0 -28 1 82 71 11 18 4
-1 -6 127 -43 0 30 -9 0
0 1 -3 -14 -62 6 14 2
-1 1 -19 1 0 127 -10 0
0 -11 -15 -127 84 24 66 14
0 66 -4 46 0 1 26 0
0 47 -26 35 -61 27 127 1
0 -62 21 -3 0 -4 3 0
0 -15 -11 -1 -25 -27 -7 9
-1 9 -5 -48 0 -5 127 0
0 12 0 3 53 -15 -22 -6
0 -110 115 70 0 127 59 0
0 13 -11 127 -1 0 13 10
-1 61 -52 74 0 -9 45 0
00000000: 00ea 06fe 7efc fa01 fe81 a3fb 007b 0100
00000010: 00e4 0152 470b 1204 fffa 7fd5 001e f700
00000020: 0001 fdf2 c206 0e02 ff01 ed01 007f f600
00000030: 00f5 f181 5418 420e 0042 fc2e 0001 1a00
00000040: 002f e623 c31b 7f01 00c2 15fd 00fc 0300
00000050: 00f1 f5ff e7e5 f909 ff09 fbd0 00fb 7f00
00000060: 000c 0003 35f1 eafa 0092 7346 007f 3b00
00000070: 000d f57f ff00 0d0a ff3d cc4a 00f7 2d00

model_1/block_1_expand/Conv2D i1 [48, 1, 1, 8]
13 -127 50 -48 31 -16 -48 24
70 69 -25 -90 13 -15 -69 127
29 8 -41 127 68 121 38 95
76 72 -91 127 -112 6 4 17
-42 -93 59 19 11 30 -36 -127
28 12 -33 44 6 -36 34 127
59 -22 -127 -72 111 11 48 -26
127 18 22 -22 35 -2 84 -61
20 -108 6 118 -11 32 -1 -127
120 -127 26 5 -18 20 -119 99
-127 -46 -122 3 -20 10 -100 60
-21 -35 -9 -93 -127 -38 46 -16
12 -8 -49 59 -90 -16 63 127
0 0 0 0 0 0 0 0
-4 -35 -2 11 41 127 48 42
39 9 16 -127 54 40 -58 68
0 0 0 0 0 0 0 0
10 30 127 21 -40 -13 36 36
87 -127 27 34 -8 22 -118 2
-127 -5 45 76 -53 -53 -97 73
36 28 -47 122 -34 -127 3 69
58 21 127 15 -10 -9 61 12
-81 -7 -127 4 6 12 -96 5
-84 116 -16 -10 2 -6 127 -65
5 -56 -55 70 -17 -50 109 127
13 37 24 23 127 110 -73 -55
-81 -26 -127 -3 16 21 -97 10
-4 -24 -35 10 -41 127 71 48
2 -25 -26 57 38 127 61 70
84 26 127 -3 -7 -8 74 -7
-80 127 -28 -28 18 -9 100 -44
-47 -96 -18 9 53 -93 127 121
00000000: 0d81 32d0 1ff0 d018 4645 e7a6 0df1 bb7f
00000010: 1d08 d77f 4479 265f 4c48 a57f 9006 0411
00000020: d6a3 3b13 0b1e dc81 1c0c df2c 06dc 227f
00000030: 3bea 81b8 6f0b 30e6 7f12 16ea 23fe 54c3
00000040: 1494 0676 f520 ff81 7881 1a05 ee14 8963
00000050: 81d2 8603 ec0a 9c3c ebdd f7a3 81da 2ef0
00000060: 0cf8 cf3b a6f0 3f7f 0000 0000 0000 0000
00000070: fcdd fe0b 297f 302a 2709 1081 3628 c644
00000080: 0000 0000 0000 0000 0a1e 7f15 d8f3 2424
00000090: 5781 1b22 f816 8a02 81fb 2d4c cbcb 9f49
000000a0: 241c d17a de81 0345 3a15 7f0f f6f7 3d0c
000000b0: aff9 8104 060c a005 ac74 f0f6 02fa 7fbf
000000c0: 05c8 c946 efce 6d7f 0d25 1817 7f6e b7c9
000000d0: afe6 81fd 1015 9f0a fce8 dd0a d77f 4730
000000e0: 02e7 e639 267f 3d46 541a 7ffd f9f8 4af9
000000f0: b07f e4e4 12f7 64d4 d1a0 ee09 35a3 7f79

model_1/block_1_depthwise_BN/FusedBatchNormV3;model_1/block_1_depthwise/depthwise;model_1/block_3_depthwise/depthwise i1 [1, 3, 3, 48]
-43 -23 -8 -16 7 -40 -78 -69
-27 -51 9 65 33 -71 114 -43
-113 -86 38 -6 -1 -71 -112 -79
-33 -125 -63 -22 72 15 95 27
-127 -88 -7 55 18 48 -127 77
-76 -14 104 -108 -2 -35 -87 107
74 12 -27 -29 57 -127 -127 -81
62 -75 -118 107 38 -82 -2 62
-52 -113 59 8 11 -111 -127 -69
-4 -127 -121 -40 -54 21 -57 54
29 -127 66 85 12 73 -93 127
-127 7 126 -127 3 -23 -127 94
-31 43 6 -4 -65 -109 -59 -18
87 -8 -127 37 9 -71 -101 -11
-127 -25 28 13 -17 -76 -35 -23
-10 -33 -57 -13 -10 17 -25 10
107 -86 71 32 14 35 -4 15
-80 2 6 -80 -17 6 -55 14
-85 -127 -45 -44 -11 53 100 -105
-24 -109 -21 112 89 -64 27 -98
-121 -94 91 -78 42 -89 -102 -127
44 -118 -78 -39 127 -59 127 85
-45 -84 -15 86 -36 -77 -107 89
42 59 104 -109 -91 -118 82 121
127 -81 -127 -127 127 40 95 -127
102 -127 -111 127 127 -14 -6 127
-60 -127 127 -127 127 -127 -120 -119
127 -98 -127 -127 -120 -127 -70 127
28 -111 127 127 -70 -127 -96 89
61 127 127 -116 -113 -127 124 127
-52 31 -61 -84 -121 -24 31 -37
127 -20 -77 35 56 -70 -25 -44
00000000: d5e9 f8f0 07d8 b2bb e5cd 0941 21b9 72d5
00000010: 8faa 26fa ffb9 90b1 df83 c1ea 480f 5f1b
00000020: 81a8 f937 1230 814d b4f2 6894 fedd a96b
00000030: 4a0c e5e3 3981 81af 3eb5 8a6b 26ae fe3e
00000040: cc8f 3b08 0b91 81bb fc81 87d8 ca15 c736
00000050: 1d81 4255 0c49 a37f 8107 7e81 03e9 815e
00000060: e12b 06fc bf93 c5ee 57f8 8125 09b9 9bf5
00000070: 81e7 1c0d efb4 dde9 f6df c7f3 f611 e70a
00000080: 6baa 4720 0e23 fc0f b002 06b0 ef06 c90e
00000090: ab81 d3d4 f535 6497 e893 eb70 59c0 1b9e
000000a0: 87a2 5bb2 2aa7 9a81 2c8a b2d9 7fc5 7f55
000000b0: d3ac f156 dcb3 9559 2a3b 6893 a58a 5279
000000c0: 7faf 8181 7f28 5f81 6681 917f 7ff2 fa7f
000000d0: c481 7f81 7f81 8889 7f9e 8181 8881 ba7f
000000e0: 1c91 7f7f ba81 a059 3d7f 7f8c 8f81 7c7f
000000f0: cc1f c3ac 87e8 1fdb 7fec b323 38ba e7d4

model_1/block_1_project/Conv2D i1 [8, 1, 1, 48]
-16 1 9 -92 13 25 8 5
2 3 9 0 97 0 1 6
0 -12 -4 -4 70 -6 -3 2
30 43 12 13 0 7 4 -127
9 3 3 3 -21 -3 -7 29
11 -25 -6 1 1 -4 9 -1
-41 -11 -3 -5 43 27 -29 78
21 5 -33 -21 10 0 18 41
0 43 22 -46 0 24 127 19
-29 3 55 0 20 -4 16 -12
16 -9 -8 -10 4 -56 11 3
-6 -7 -82 -9 -33 4 -48 -98
-61 9 0 9 44 -10 31 22
-4 56 11 -8 5 0 5 60
0 10 -127 27 4 11 3 -19
-31 7 36 5 9 34 25 5
6 -5 -18 -11 10 5 5 -2
43 -8 -27 -3 27 -60 31 14
-1 -3 3 5 0 23 8 -4
61 15 -3 0 28 0 -31 -10
0 -3 -8 4 -3 0 3 -17
-13 -6 -12 -3 -6 -2 -4 -10
-45 42 -51 -2 8 0 1 -127
-1 4 6 -53 -4 0 -1 7
-3 -3 91 37 0 -21 -2 -1
4 -3 -3 -7 -86 0 -14 4
0 11 7 3 66 6 6 -5
-12 43 -2 45 -12 -3 -4 98
8 5 -3 -1 18 -11 -4 -18
-6 -127 5 1 -1 -4 -1 -1
-10 42 6 -6 4 47 28 9
-18 30 9 55 28 0 -127 2
00000000: f001 09a4 0d19 0805 0203 0900 6100 0106
00000010: 00f4 fcfc 46fa fd02 1e2b 0c0d 0007 0481
00000020: 0903 0303 ebfd f91d 0be7 fa01 01fc 09ff
00000030: d7f5 fdfb 2b1b e34e 1505 dfeb 0a00 1229
00000040: 002b 16d2 0018 7f13 e303 3700 14fc 10f4
00000050: 10f7 f8f6 04c8 0b03 faf9 aef7 df04 d09e
00000060: c309 0009 2cf6 1f16 fc38 0bf8 0500 053c
00000070: 000a 811b 040b 03ed e107 2405 0922 1905
00000080: 06fb eef5 0a05 05fe 2bf8 e5fd 1bc4 1f0e
00000090: fffd 0305 0017 08fc 3d0f fd00 1c00 e1f6
000000a0: 00fd f804 fd00 03ef f3fa f4fd fafe fcf6
000000b0: d32a cdfe 0800 0181 ff04 06cb fc00 ff07
000000c0: fdfd 5b25 00eb feff 04fd fdf9 aa00 f204
000000d0: 000b 0703 4206 06fb f42b fe2d f4fd fc62
000000e0: 0805 fdff 12f5 fcee fa81 0501 fffc ffff
000000f0: f62a 06fa 042f 1c09 ee1e 0937 1c00 8102

model_1/block_2_expand/Conv2D i1 [48, 1, 1, 8]
93 43 -10 -16 127 45 -47 -43
-3 -1 3 127 12 -5 8 15
30 -127 -27 51 -13 -79 91 5
127 -34 -8 19 -19 -33 30 -1
13 -51 127 -5 -13 -39 8 -87
54 10 -3 -7 127 4 0 7
-10 111 -15 127 34 56 -83 -60
-13 127 -5 6 3 -7 20 -14
127 67 -13 7 -78 -30 12 -41
-127 7 10 8 66 8 -14 8
-62 -17 11 127 30 27 -22 13
-127 1 2 -67 15 4 -16 -38
127 19 -1 15 -36 -14 -1 -43
-9 85 -127 -3 13 106 -76 64
-79 -57 -8 127 8 27 -14 -13
-6 127 -3 -3 -5 -18 13 -52
-13 -127 -21 -3 -13 -105 100 -18
30 127 8 -19 19 83 -105 -11
-7 46 -127 -6 0 48 -23 59
-96 12 -8 -9 -127 -11 26 37
-127 -23 4 4 63 -21 35 1
-73 1 -3 0 -127 7 27 8
-127 -25 4 1 88 -10 39 59
-26 -17 -9 -13 -3 78 -127 -97
-8 37 -127 1 12 39 -11 80
126 -42 -12 127 -81 -5 18 -66
1 -26 -3 3 -8 123 127 -28
72 -9 -6 15 127 44 47 -40
-4 99 -65 0 10 69 -17 127
-4 8 0 -4 -4 92 -127 -83
-2 -6 -1 -127 -8 -5 -1 -9
-82 6 2 9 -127 4 19 13
00000000: 5d2b f6f0 7f2d d1d5 fdff 037f 0cfb 080f
00000010: 1e81 e533 f3b1 5b05 7fde f813 eddf 1eff
00000020: 0dcd 7ffb f3d9 08a9 360a fdf9 7f04 0007
00000030: f66f f17f 2238 adc4 f37f fb06 03f9 14f2
00000040: 7f43 f307 b2e2 0cd7 8107 0a08 4208 f208
00000050: c2ef 0b7f 1e1b ea0d 8101 02bd 0f04 f0da
00000060: 7f13 ff0f dcf2 ffd5 f755 81fd 0d6a b440
00000070: b1c7 f87f 081b f2f3 fa7f fdfd fbee 0dcc
00000080: f381 ebfd f397 64ee 1e7f 08ed 1353 97f5
00000090: f92e 81fa 0030 e93b a00c f8f7 81f5 1a25
000000a0: 81e9 0404 3feb 2301 b701 fd00 8107 1b08
000000b0: 81e7 0401 58f6 273b e6ef f7f3 fd4e 819f
000000c0: f825 8101 0c27 f550 7ed6 f47f affb 12be
000000d0: 01e6 fd03 f87b 7fe4 48f7 fa0f 7f2c 2fd8
000000e0: fc63 bf00 0a45 ef7f fc08 00fc fc5c 81ad
000000f0: fefa ff81 f8fb fff7 ae06 0209 8104 130d

model_1/block_2_depthwise_BN/FusedBatchNormV3;model_1/block_2_depthwise/depthwise;model_1/block_3_depthwise/depthwise i1 [1, 3, 3, 48]
3 -4 20 106 4 82 0 27
17 9 8 8 -9 -10 -43 8
-3 8 -22 -115 -6 -23 127 -10
-2 8 -6 10 -5 5 16 99
20 28 37 -28 1 34 -2 2
17 -67 -9 -9 17 2 -8 -10
127 9 15 -127 27 87 11 10
126 127 8 43 -53 -25 6 8
127 -56 -59 -57 -100 24 -111 14
17 72 -32 -84 23 21 9 -122
6 -61 127 10 -39 -47 -6 116
-80 -99 -29 3 -34 -8 -127 23
-32 -4 7 13 -1 64 4 17
29 8 -13 32 -15 -4 17 3
-105 29 -3 78 -31 -12 -19 -6
-4 -59 -3 30 -16 5 4 -21
9 -24 15 -19 0 47 41 -13
50 36 -16 10 -43 2 -3 -5
125 6 1 -97 13 -28 35 -17
10 9 -13 54 -8 -1 19 -33
-1 -49 -60 -84 10 -73 -126 -18
5 100 -15 -127 -9 32 12 -108
17 -51 -3 127 -2 58 -40 40
-63 -127 38 -87 -44 -15 -13 -4
27 -127 -127 113 -127 -127 -127 -127
-127 -96 127 -127 127 127 36 -127
-84 127 127 -107 127 127 112 127
127 -127 -127 29 -127 -127 94 127
-127 127 -28 -42 127 -127 127 127
127 -79 127 127 127 -122 99 107
53 5 49 -13 5 -63 44 18
-23 13 -104 -8 -1 -41 127 4
00000000: 03fc 146a 0452 001b 1109 0808 f7f6 d508
00000010: fd08 ea8d fae9 7ff6 fe08 fa0a fb05 1063
00000020: 141c 25e4 0122 fe02 11bd f7f7 1102 f8f6
00000030: 7f09 0f81 1b57 0b0a 7e7f 082b cbe7 0608
00000040: 7fc8 c5c7 9c18 910e 1148 e0ac 1715 0986
00000050: 06c3 7f0a d9d1 fa74 b09d e303 def8 8117
00000060: e0fc 070d ff40 0411 1d08 f320 f1fc 1103
00000070: 971d fd4e e1f4 edfa fcc5 fd1e f005 04eb
00000080: 09e8 0fed 002f 29f3 3224 f00a d502 fdfb
00000090: 7d06 019f 0de4 23ef 0a09 f336 f8ff 13df
000000a0: ffcf c4ac 0ab7 82ee 0564 f181 f720 0c94
000000b0: 11cd fd7f fe3a d828 c181 26a9 d4f1 f3fc
000000c0: 1b81 8171 8181 8181 81a0 7f81 7f7f 2481
000000d0: ac7f 7f95 7f7f 707f 7f81 811d 8181 5e7f
000000e0: 817f e4d6 7f81 7f7f 7fb1 7f7f 7f86 636b
000000f0: 3505 31f3 05c1 2c12 e90d 98f8 ffd7 7f04

model_1/block_2_project/Conv2D i1 [8, 1, 1, 48]
-67 -1 -35 23 8 -29 4 -3
-117 127 -35 110 110 2 67 -14
-2 -33 6 1 -13 -1 -20 -39
18 -87 10 59 -2 2 23 -39
-9 -70 97 9 -6 -6 7 -19
117 -1 33 -28 -29 23 -8 -4
5 40 127 2 -1 -26 2 -84
39 -5 14 10 -24 8 -3 -123
17 -66 6 7 -28 28 23 -33
-16 -13 21 2 20 -2 18 -10
1 14 20 7 -8 -43 79 -69
6 50 -7 22 -9 6 31 -6
5 -41 22 -36 37 30 -3 -27
5 -2 3 12 -10 56 9 6
-35 127 -28 -32 -18 15 -32 -15
121 1 -4 -7 -20 -1 6 -43
-5 -18 2 6 -12 2 -12 1
22 -24 -18 3 1 25 -22 -35
-5 -81 1 8 10 -5 -5 -1
-5 -15 17 20 9 -10 50 5
-9 -26 3 19 1 23 -20 -2
9 54 -6 7 -2 9 127 2
16 9 0 -4 -28 -11 -6 9
-5 9 -2 29 -8 5 2 30
-107 2 -2 -3 0 -34 -2 12
41 -43 19 -25 -39 -3 -13 2
3 2 -4 25 6 -32 17 4
-10 47 5 116 8 7 -11 -33
6 -127 -42 17 3 1 2 -1
-51 -9 -18 15 -59 0 7 16
-28 35 14 10 -37 -1 -2 44
24 -2 12 9 5 -41 11 34
00000000: bdff dd17 08e3 04fd 8b7f dd6e 6e02 43f2
00000010: fedf 0601 f3ff ecd9 12a9 0a3b fe02 17d9
00000020: f7ba 6109 fafa 07ed 75ff 21e4 e317 f8fc
00000030: 0528 7f02 ffe6 02ac 27fb 0e0a e808 fd85
00000040: 11be 0607 e41c 17df f0f3 1502 14fe 12f6
00000050: 010e 1407 f8d5 4fbb 0632 f916 f706 1ffa
00000060: 05d7 16dc 251e fde5 05fe 030c f638 0906
00000070: dd7f e4e0 ee0f e0f1 7901 fcf9 ecff 06d5
00000080: fbee 0206 f402 f401 16e8 ee03 0119 eadd
00000090: fbaf 0108 0afb fbff fbf1 1114 09f6 3205
000000a0: f7e6 0313 0117 ecfe 0936 fa07 fe09 7f02
000000b0: 1009 00fc e4f5 fa09 fb09 fe1d f805 021e
000000c0: 9502 fefd 00de fe0c 29d5 13e7 d9fd f302
000000d0: 0302 fc19 06e0 1104 f62f 0574 0807 f5df
000000e0: 0681 d611 0301 02ff cdf7 ee0f c500 0710
000000f0: e423 0e0a dbff fe2c 18fe 0c09 05d7 0b22

model_1/block_3_expand/Conv2D i1 [48, 1, 1, 8]
-127 6 -4 68 -28 43 24 -26
28 83 65 25 15 -38 116 127
-34 -4 21 -13 -127 -13 16 -6
106 4 -10 -127 -123 7 30 -24
-127 29 -13 -21 76 -14 28 17
-96 -22 28 -12 -127 3 7 94
-34 -127 14 -17 15 4 -15 13
-69 2 -3 105 127 -47 -35 1
69 11 2 -127 -2 -34 -53 -48
-15 -127 1 2 -6 88 -49 90
-94 -1 -9 8 -127 80 59 -20
102 17 35 16 -48 -48 -34 -127
-1 10 42 -11 9 -70 127 47
57 -32 6 -5 127 124 110 -38
127 75 -39 12 -89 -33 -27 -7
-29 -127 16 -15 10 9 -8 15
-62 -11 6 -10 -127 4 12 -2
-19 108 -101 -10 6 -127 90 -100
127 -37 -44 17 -59 21 15 112
127 -49 -4 -20 48 -16 57 4
107 30 -8 127 -1 25 13 -52
29 30 -70 4 -32 83 -127 -79
-127 2 14 -5 -47 1 -70 -22
-45 -56 0 23 -127 64 81 -16
127 0 -4 -21 -65 -6 9 -6
20 -17 -6 -21 127 46 50 -27
3 -82 6 -42 14 -127 82 -47
-18 -127 26 -16 -4 -55 36 -10
-103 33 -14 32 -35 -33 127 105
-15 44 17 4 5 47 -98 -127
127 -20 5 16 -72 -2 -27 -13
-34 -19 65 -23 40 -125 127 86
00000000: 8106 fc44 e42b 18e6 1c53 4119 0fda 747f
00000010: defc 15f3 81f3 10fa 6a04 f681 8507 1ee8
00000020: 811d f3eb 4cf2 1c11 a0ea 1cf4 8103 075e
00000030: de81 0eef 0f04 f10d bb02 fd69 7fd1 dd01
00000040: 450b 0281 fede cbd0 f181 0102 fa58 cf5a
00000050: a2ff f708 8150 3bec 6611 2310 d0d0 de81
00000060: ff0a 2af5 09ba 7f2f 39e0 06fb 7f7c 6eda
00000070: 7f4b d90c a7df e5f9 e381 10f1 0a09 f80f
00000080: c2f5 06f6 8104 0cfe ed6c 9bf6 0681 5a9c
00000090: 7fdb d411 c515 0f70 7fcf fcec 30f0 3904
000000a0: 6b1e f87f ff19 0dcc 1d1e ba04 e053 81b1
000000b0: 8102 0efb d101 baea d3c8 0017 8140 51f0
000000c0: 7f00 fceb bffa 09fa 14ef faeb 7f2e 32e5
000000d0: 03ae 06d6 0e81 52d1 ee81 1af0 fcc9 24f6
000000e0: 9921 f220 dddf 7f69 f12c 1104 052f 9e81
000000f0: 7fec 0510 b8fe e5f3 deed 41e9 2883 7f56

model_1/block_3_depthwise_BN/FusedBatchNormV3;model_1/block_3_depthwise/depthwise i1 [1, 3, 3, 48]
71 -91 98 71 54 -34 105 -67
59 -87 -77 47 51 -39 -71 -88
101 79 48 78 65 -75 -83 51
-30 -39 -63 -65 -67 61 -64 -115
-14 39 69 64 -65 55 -50 -24
50 -74 56 62 -88 12 75 -33
82 -95 127 86 -77 -68 -55 -85
95 -99 -62 73 78 -109 -94 93
-38 97 81 127 83 -117 54 71
-50 -77 -68 -81 56 78 -31 -127
-87 78 83 84 -82 82 -81 -17
76 -95 81 90 -72 -127 93 -102
35 -47 69 38 19 -40 -43 -41
43 -29 6 34 29 -82 -55 -2
-54 36 34 69 35 -55 33 26
-24 -45 -43 -24 32 30 87 -90
-81 42 36 34 -30 40 -36 -11
41 -40 33 42 -6 -8 36 -75
94 -111 -42 93 56 -83 127 -90
87 -113 -71 81 85 -107 -13 -127
127 107 75 -36 84 107 -127 72
74 -77 -93 -99 -127 86 -71 -10
-87 71 106 96 -86 78 -81 88
85 -101 86 90 -87 107 92 -93
127 -127 -64 127 -127 -127 -89 -127
127 -127 -127 127 127 -127 -21 98
-65 127 127 -48 127 127 71 127
127 -127 -127 -127 54 127 -29 15
-127 127 127 127 -127 127 -127 127
127 -127 127 127 -127 -12 127 -127
64 -80 -34 67 38 -62 -44 -62
57 -42 -57 58 49 -52 -17 8
00000000: 47a5 6247 36de 69bd 3ba9 b32f 33d9 b9a8
00000010: 654f 304e 41b5 ad33 e2d9 c1bf bd3d c08d
00000020: f227 4540 bf37 cee8 32b6 383e a80c 4bdf
00000030: 52a1 7f56 b3bc c9ab 5f9d c249 4e93 a25d
00000040: da61 517f 538b 3647 ceb3 bcaf 384e e181
00000050: a94e 5354 ae52 afef 4ca1 515a b881 5d9a
00000060: 23d1 4526 13d8 d5d7 2be3 0622 1dae c9fe
00000070: ca24 2245 23c9 211a e8d3 d5e8 201e 57a6
00000080: af2a 2422 e228 dcf5 29d8 212a faf8 24b5
00000090: 5e91 d65d 38ad 7fa6 578f b951 5595 f381
000000a0: 7f6b 4bdc 546b 8148 4ab3 a39d 8156 b9f6
000000b0: a947 6a60 aa4e af58 559b 565a a96b 5ca3
000000c0: 7f81 c07f 8181 a781 7f81 817f 7f81 eb62
000000d0: bf7f 7fd0 7f7f 477f 7f81 8181 367f e30f
000000e0: 817f 7f7f 817f 817f 7f81 7f7f 81f4 7f81
000000f0: 40b0 de43 26c2 d4c2 39d6 c73a 31cc ef08

model_1/block_3_project/Conv2D i1 [16, 1, 1, 48]
-10 -9 -21 22 23 -8 5 96
-48 10 35 -7 22 -26 -10 24
18 -16 -3 -1 63 -6 26 127
-18 80 -16 -17 27 -18 29 -25
-22 53 25 -45 15 48 13 -17
-96 -28 18 43 36 24 -114 -47
-40 -7 22 5 -36 5 -2 60
-53 -34 7 -43 -24 -11 -14 -6
-28 113 -18 10 3 6 -28 -18
30 -33 8 19 -22 -86 -41 14
-24 -11 39 -5 -1 -48 2 12
-26 -28 127 4 7 -2 12 -13
-25 -11 -11 -35 0 -70 3 -22
1 6 13 23 16 13 -17 10
-10 -21 -24 -12 -7 6 -5 -127
-12 77 -12 0 -11 -29 1 -4
3 55 15 -3 30 7 31 3
-41 10 -27 -7 -5 -9 14 8
-9 43 2 -33 1 0 -1 0
-23 -1 0 40 -127 9 -6 -8
3 2 -17 -1 -28 9 7 15
-3 -7 4 25 -5 19 3 11
7 -2 16 19 -13 21 40 6
8 5 24 -33 7 -7 -3 17
37 -34 1 6 14 27 19 -23
-34 5 -16 -23 -2 11 8 18
21 -12 -77 9 -2 10 15 73
-4 -27 5 48 5 -77 22 11
14 -36 35 -127 16 37 0 13
-20 21 9 -22 -13 -20 7 2
33 0 -20 57 1 -17 2 28
0 -5 39 9 8 55 -10 -2
00000000: f6f7 eb16 17f8 0560 d00a 23f9 16e6 f618
00000010: 12f0 fdff 3ffa 1a7f ee50 f0ef 1bee 1de7
00000020: ea35 19d3 0f30 0def a0e4 122b 2418 8ed1
00000030: d8f9 1605 dc05 fe3c cbde 07d5 e8f5 f2fa
00000040: e471 ee0a 0306 e4ee 1edf 0813 eaaa d70e
00000050: e8f5 27fb ffd0 020c e6e4 7f04 07fe 0cf3
00000060: e7f5 f5dd 00ba 03ea 0106 0d17 100d ef0a
00000070: f6eb e8f4 f906 fb81 f44d f400 f5e3 01fc
00000080: 0337 0ffd 1e07 1f03 d70a e5f9 fbf7 0e08
00000090: f72b 02df 0100 ff00 e9ff 0028 8109 faf8
000000a0: 0302 efff e409 070f fdf9 0419 fb13 030b
000000b0: 07fe 1013 f315 2806 0805 18df 07f9 fd11
000000c0: 25de 0106 0e1b 13e9 de05 f0e9 fe0b 0812
000000d0: 15f4 b309 fe0a 0f49 fce5 0530 05b3 160b
000000e0: 0edc 2381 1025 000d ec15 09ea f3ec 0702
000000f0: 2100 ec39 01ef 021c 00fb 2709 0837 f6fe

model_1/block_4_expand/Conv2D i1 [96, 1, 1, 16]
37 -9 127 111 108 -10 62 -60
80 7 -50 -93 36 82 -38 -111
43 76 -15 6 89 -8 19 38
45 70 -36 127 -12 -29 60 -68
19 -61 23 7 -65 51 -48 88
-77 -87 2 71 -22 -127 69 -116
108 123 -7 32 -127 -26 -62 -28
8 -2 82 -64 -51 65 -37 -22
-15 -1 -9 2 -11 29 -24 16
-40 -27 1 -13 -1 -127 48 8
94 -41 -35 -4 -21 -127 -10 33
1 -1 -122 -14 30 -4 -5 40
-85 -56 -9 114 -72 -1 -33 39
-127 -66 -125 -41 44 45 14 118
-38 32 -95 32 59 -127 -13 37
24 -27 29 -1 -5 8 -43 4
22 -28 -13 -9 2 20 -62 -60
-2 12 -66 14 -127 0 -7 29
36 -78 56 98 16 32 -21 -86
127 -108 25 -45 9 66 -55 46
-78 -47 12 -34 80 14 56 93
67 -69 -88 17 86 -127 -121 83
45 -15 -127 19 49 18 -30 31
-20 -27 -7 -3 6 25 -30 5
123 -72 9 -22 17 -105 -82 -30
42 -23 -127 -47 -77 5 16 46
38 -96 16 -59 109 -4 -105 -107
66 -127 26 18 19 0 55 -3
-68 41 -90 -51 91 -127 69 -61
59 58 1 -108 29 121 -13 25
14 -13 63 67 49 -58 -40 -7
46 -96 -77 -9 -127 -38 -20 66
00000000: 25f7 7f6f 6cf6 3ec4 5007 cea3 2452 da91
00000010: 2b4c f106 59f8 1326 2d46 dc7f f4e3 3cbc
00000020: 13c3 1707 bf33 d058 b3a9 0247 ea81 458c
00000030: 6c7b f920 81e6 c2e4 08fe 52c0 cd41 dbea
00000040: f1ff f702 f51d e810 d8e5 01f3 ff81 3008
00000050: 5ed7 ddfc eb81 f621 01ff 86f2 1efc fb28
00000060: abc8 f772 b8ff df27 81be 83d7 2c2d 0e76
00000070: da20 a120 3b81 f325 18e5 1dff fb08 d504
00000080: 16e4 f3f7 0214 c2c4 fe0c be0e 8100 f91d
00000090: 24b2 3862 1020 ebaa 7f94 19d3 0942 c92e
000000a0: b2d1 0cde 500e 385d 43bb a811 5681 8753
000000b0: 2df1 8113 3112 e21f ece5 f9fd 0619 e205
000000c0: 7bb8 09ea 1197 aee2 2ae9 81d1 b305 102e
000000d0: 26a0 10c5 6dfc 9795 4281 1a12 1300 37fd
000000e0: bc29 a6cd 5b81 45c3 3b3a 0194 1d79 f319
000000f0: 0ef3 3f43 31c6 d8f9 2ea0 b3f7 81da ec42

model_1/block_4_depthwise_BN/FusedBatchNormV3;model_1/block_4_depthwise/depthwise;model_1/block_6_expand/Conv2D i1 [1, 3, 3, 96]
-17 6 -21 104 -17 25 -63 -54
18 -6 103 -9 5 -8 -5 54
5 16 -40 3 74 3 34 -34
2 16 43 47 24 12 23 49
0 28 7 -14 5 50 -63 -28
20 9 26 17 -81 -57 26 -6
-12 -22 -7 -7 50 6 -9 1
-1 -34 29 -31 25 -2 127 28
-14 -10 9 -50 67 37 5 -9
77 -33 69 6 17 -126 30 65
3 13 127 -15 37 29 -27 -19
33 -7 -13 84 2 19 -2 12
-48 12 -9 11 52 -7 -11 -127
38 13 -127 -5 -18 -13 4 90
17 -30 -16 -18 78 -96 127 26
-60 -32 -105 -17 29 35 -49 17
124 13 -13 0 -23 127 -69 -127
7 -18 -30 15 47 -127 127 -45
-77 50 51 6 40 -64 30 54
41 43 -98 83 127 34 7 -18
43 -38 -95 -2 38 -29 -16 47
-51 -45 105 -2 -29 -58 -33 64
-66 57 -12 7 -9 48 54 -40
-27 52 -12 75 -127 -31 23 -127
-1 -5 -24 -73 8 19 38 22
-3 -2 6 62 0 -13 -10 2
-14 18 -21 16 4 25 22 -33
0 -33 10 11 -4 4 46 -80
44 17 8 -22 11 5 -37 -21
8 2 -16 8 23 -32 22 0
6 -10 7 -5 6 6 -4 7
-5 46 9 -1 9 -18 6 -17
00000000: ef06 eb68 ef19 c1ca 12fa 67f7 05f8 fb36
00000010: 0510 d803 4a03 22de 0210 2b2f 180c 1731
00000020: 001c 07f2 0532 c1e4 1409 1a11 afc7 1afa
00000030: f4ea f9f9 3206 f701 ffde 1de1 19fe 7f1c
00000040: f2f6 09ce 4325 05f7 4ddf 4506 1182 1e41
00000050: 030d 7ff1 251d e5ed 21f9 f354 0213 fe0c
00000060: d00c f70b 34f9 f581 260d 81fb eef3 045a
00000070: 11e2 f0ee 4ea0 7f1a c4e0 97ef 1d23 cf11
00000080: 7c0d f300 e97f bb81 07ee e20f 2f81 7fd3
00000090: b332 3306 28c0 1e36 292b 9e53 7f22 07ee
000000a0: 2bda a1fe 26e3 f02f cdd3 69fe e3c6 df40
000000b0: be39 f407 f730 36d8 e534 f44b 81e1 1781
000000c0: fffb e8b7 0813 2616 fdfe 063e 00f3 f602
000000d0: f212 eb10 0419 16df 00df 0a0b fc04 2eb0
000000e0: 2c11 08ea 0b05 dbeb 0802 f008 17e0 1600
000000f0: 06f6 07fb 0606 fc07 fb2e 09ff 09ee 06ef

model_1/block_4_project/Conv2D i1 [16, 1, 1, 96]
-3 16 -11 14 32 76 -46 -33
43 -4 17 10 -5 11 25 71
0 -6 5 11 104 -58 9 -6
-26 -30 -19 -101 -14 -13 47 48
127 -12 -11 2 5 -8 -19 10
-26 16 6 -26 0 -33 -15 22
-9 11 11 -4 -35 -20 7 -16
20 27 -25 -20 -49 22 7 -20
15 13 53 -12 10 -2 1 -23
-56 13 7 -2 -23 -82 -2 -21
24 -19 -68 -42 35 -8 3 22
-16 -5 14 -23 11 23 -9 116
49 -104 41 87 -30 -84 -12 -43
-48 -90 -16 28 13 -56 -56 -76
-88 -20 9 22 -37 -108 -48 7
127 -91 -79 25 -26 113 -31 65
-4 19 -37 18 -16 -9 52 -17
1 -84 67 -21 -57 20 70 11
27 23 20 -81 74 -67 32 11
13 15 -23 -101 37 -56 -6 -66
-4 -93 50 64 40 59 -40 -8
-99 22 -23 78 26 95 8 -7
46 -22 -78 44 -97 63 -10 57
-31 16 42 1 6 -51 45 -9
23 20 15 -35 8 -4 -10 43
50 -10 12 51 -8 10 41 11
-18 -9 4 -18 -12 -53 -10 -43
3 -11 -10 23 -3 16 83 -36
23 -46 -25 48 -1 127 -46 -7
-7 -27 -11 24 -36 -43 -47 14
30 14 -20 -26 36 9 -24 -27
-24 2 -7 18 21 5 48 78
00000000: fd10 f50e 204c d2df 2bfc 110a fb0b 1947
00000010: 00fa 050b 68c6 09fa e6e2 ed9b f2f3 2f30
00000020: 7ff4 f502 05f8 ed0a e610 06e6 00df f116
00000030: f70b 0bfc ddec 07f0 141b e7ec cf16 07ec
00000040: 0f0d 35f4 0afe 01e9 c80d 07fe e9ae feeb
00000050: 18ed bcd6 23f8 0316 f0fb 0ee9 0b17 f774
00000060: 3198 2957 e2ac f4d5 d0a6 f01c 0dc8 c8b4
00000070: a8ec 0916 db94 d007 7fa5 b119 e671 e141
00000080: fc13 db12 f0f7 34ef 01ac 43eb c714 460b
00000090: 1b17 14af 4abd 200b 0d0f e99b 25c8 fabe
000000a0: fca3 3240 283b d8f8 9d16 e94e 1a5f 08f9
000000b0: 2eea b22c 9f3f f639 e110 2a01 06cd 2df7
000000c0: 1714 0fdd 08fc f62b 32f6 0c33 f80a 290b
000000d0: eef7 04ee f4cb f6d5 03f5 f617 fd10 53dc
000000e0: 17d2 e730 ff7f d2f9 f9e5 f518 dcd5 d10e
000000f0: 1e0e ece6 2409 e8e5 e802 f912 1505 304e

model_1/block_5_expand/Conv2D i1 [96, 1, 1, 16]
-3 54 -12 67 31 39 1 -2
45 24 -44 112 0 -110 47 -127
29 39 -2 -27 30 -21 127 -105
-3 94 -19 -23 -9 -55 23 12
-124 33 -103 -48 -1 -32 59 111
-57 87 127 -19 -60 10 53 -14
-45 55 45 42 -42 37 55 127
-11 52 -85 -6 24 -81 -78 -30
-3 -8 34 75 -29 77 -13 52
-8 -30 6 -10 21 -2 -127 -16
-23 -36 53 13 17 -28 -14 15
-75 108 -38 -127 9 40 -66 -17
6 10 20 -23 35 43 -70 -53
-13 14 42 -12 127 -48 -11 -17
41 14 127 -7 -23 -29 11 -13
-62 34 -89 -39 8 -15 42 -23
15 22 70 41 -47 80 9 51
26 -24 8 -91 -34 -4 -127 -54
39 -127 42 37 31 -53 -36 -3
82 -29 54 -29 -36 -6 -124 -1
-52 -97 -12 -57 -127 22 -44 61
60 72 94 -46 2 64 67 36
40 -23 13 -94 -13 -40 -114 -127
-55 47 -28 -40 42 -28 37 -56
-15 12 7 -53 -23 -41 -77 -9
-23 -46 -21 7 12 127 82 39
-80 -127 5 90 29 -50 -33 -27
104 -21 -90 -13 -2 49 120 -12
-4 -44 50 19 18 18 11 127
18 49 14 -38 -1 29 -65 81
18 -47 8 61 18 3 83 -6
8 -127 23 -27 5 -17 0 -40
00000000: fd36 f443 1f27 01fe 2d18 d470 0092 2f81
00000010: 1d27 fee5 1eeb 7f97 fd5e ede9 f7c9 170c
00000020: 8421 99d0 ffe0 3b6f c757 7fed c40a 35f2
00000030: d337 2d2a d625 377f f534 abfa 18af b2e2
00000040: fdf8 224b e34d f334 f8e2 06f6 15fe 81f0
00000050: e9dc 350d 11e4 f20f b56c da81 0928 beef
00000060: 060a 14e9 232b bacb f30e 2af4 7fd0 f5ef
00000070: 290e 7ff9 e9e3 0bf3 c222 a7d9 08f1 2ae9
00000080: 0f16 4629 d150 0933 1ae8 08a5 defc 81ca
00000090: 2781 2a25 1fcb dcfd 52e3 36e3 dcfa 84ff
000000a0: cc9f f4c7 8116 d43d 3c48 5ed2 0240 4324
000000b0: 28e9 0da2 f3d8 8e81 c92f e4d8 2ae4 25c8
000000c0: f10c 07cb e9d7 b3f7 e9d2 eb07 0c7f 5227
000000d0: b081 055a 1dce dfe5 68eb a6f3 fe31 78f4
000000e0: fcd4 3213 1212 0b7f 1231 0eda ff1d bf51
000000f0: 12d1 083d 1203 53fa 0881 17e5 05ef 00d8

model_1/block_5_depthwise_BN/FusedBatchNormV3;model_1/block_5_depthwise/depthwise;model_1/block_6_expand/Conv2D i1 [1, 3, 3, 96]
-47 -71 -10 127 22 76 78 -56
-14 -19 -14 -5 -31 0 36 1
-9 -44 26 21 17 -127 127 5
-84 7 49 -28 -127 -127 39 24
10 25 62 -19 -30 -10 29 -6
-13 27 -106 70 24 -70 38 45
-19 51 -23 17 8 -7 17 49
-92 -48 -59 -20 -9 -1 14 38
63 -25 74 11 -8 13 18 127
23 22 24 1 -9 18 127 -5
-18 14 -28 20 119 24 -81 -17
4 -31 -15 -37 3 -26 -14 26
127 -127 78 106 -42 127 46 -114
71 3 -15 127 127 -94 -13 16
12 127 127 -112 127 -76 82 66
-127 -112 -65 -34 -56 46 -59 -19
-90 60 -127 -85 -44 -14 -50 59
-1 127 127 81 -51 -115 -109 -50
-15 -127 43 81 63 -32 45 82
-49 41 -78 -114 -43 -43 -63 67
68 -60 29 27 -80 28 -20 90
118 127 13 22 3 58 -34 51
61 127 127 -23 -6 80 -112 127
-114 -100 5 -127 -87 -127 -37 106
-76 -12 32 -82 15 -28 63 -8
81 -35 -24 19 -20 -5 -8 -10
-8 -18 7 -4 -24 -101 30 -3
-120 88 8 -55 115 50 -14 9
-2 16 16 -31 -9 35 19 10
25 13 -118 61 17 -19 37 13
-15 10 -14 4 -6 -1 -2 22
-66 7 -34 49 3 40 34 0
00000000: d1b9 f67f 164c 4ec8 f2ed f2fb e100 2401
00000010: f7d4 1a15 1181 7f05 ac07 31e4 8181 2718
00000020: 0a19 3eed e2f6 1dfa f31b 9646 18ba 262d
00000030: ed33 e911 08f9 1131 a4d0 c5ec f7ff 0e26
00000040: 3fe7 4a0b f80d 127f 1716 1801 f712 7ffb
00000050: ee0e e414 7718 afef 04e1 f1db 03e6 f21a
00000060: 7f81 4e6a d67f 2e8e 4703 f17f 7fa2 f310
00000070: 0c7f 7f90 7fb4 5242 8190 bfde c82e c5ed
00000080: a63c 81ab d4f2 ce3b ff7f 7f51 cd8d 93ce
00000090: f181 2b51 3fe0 2d52 cf29 b28e d5d5 c143
000000a0: 44c4 1d1b b01c ec5a 767f 0d16 033a de33
000000b0: 3d7f 7fe9 fa50 907f 8e9c 0581 a981 db6a
000000c0: b4f4 20ae 0fe4 3ff8 51dd e813 ecfb f8f6
000000d0: f8ee 07fc e89b 1efd 8858 08c9 7332 f209
000000e0: fe10 10e1 f723 130a 190d 8a3d 11ed 250d
000000f0: f10a f204 faff fe16 be07 de31 0328 2200

model_1/block_5_project/Conv2D i1 [16, 1, 1, 96]
-14 -15 -11 -25 22 -8 -30 3
25 1 -19 -2 -20 -18 -24 13
-10 4 -7 2 5 -31 -2 -5
0 10 -2 127 25 -38 32 -14
-7 -4 1 4 -4 26 -47 1
-17 8 -2 45 -2 7 8 12
18 -4 -15 6 15 -15 -13 68
9 6 -30 -33 -15 22 -2 -25
-38 -61 -27 39 -1 11 13 -17
-4 -37 -8 -29 -22 17 5 2
-12 -31 17 15 -8 -17 -6 -96
-8 -24 9 -6 41 -35 -27 -18
33 -70 -92 -76 117 -21 78 48
-29 -110 -65 1 18 -1 -74 39
-83 14 32 34 14 45 -13 -50
21 -27 -20 -113 50 -22 -74 47
-16 40 -14 -7 9 -12 27 16
-15 36 -50 -36 -37 94 20 -4
36 -94 15 -52 -31 40 59 6
-61 -33 -33 -44 53 -19 -1 -54
-94 127 -47 -37 0 -36 -30 6
56 -115 -28 8 32 -55 42 5
-6 -23 40 3 -45 49 -20 34
34 -29 -15 19 31 1 14 117
3 65 -86 -24 89 77 12 89
-13 -109 3 -30 -2 12 15 12
2 -5 -56 66 25 -1 70 -1
55 27 -8 -21 39 1 61 -51
46 14 -30 21 -127 -111 55 37
12 -60 16 -51 41 -27 4 75
-28 12 -8 4 83 -14 -7 65
20 10 34 8 29 19 40 -28
00000000: f2f1 f5e7 16f8 e203 1901 edfe ecee e80d
00000010: f604 f902 05e1 fefb 000a fe7f 19da 20f2
00000020: f9fc 0104 fc1a d101 ef08 fe2d fe07 080c
00000030: 12fc f106 0ff1 f344 0906 e2df f116 fee7
00000040: dac3 e527 ff0b 0def fcdb f8e3 ea11 0502
00000050: f4e1 110f f8ef faa0 f8e8 09fa 29dd e5ee
00000060: 21ba a4b4 75eb 4e30 e392 bf01 12ff b627
00000070: ad0e 2022 0e2d f3ce 15e5 ec8f 32ea b62f
00000080: f028 f2f9 09f4 1b10 f124 cedc db5e 14fc
00000090: 24a2 0fcc e128 3b06 c3df dfd4 35ed ffca
000000a0: a27f d1db 00dc e206 388d e408 20c9 2a05
000000b0: fae9 2803 d331 ec22 22e3 f113 1f01 0e75
000000c0: 0341 aae8 594d 0c59 f393 03e2 fe0c 0f0c
000000d0: 02fb c842 19ff 46ff 371b f8eb 2701 3dcd
000000e0: 2e0e e215 8191 3725 0cc4 10cd 29e5 044b
000000f0: e40c f804 53f2 f941 140a 2208 1d13 28e4

model_1/block_6_expand/Conv2D i1 [96, 1, 1, 16]
-21 90 -3 -127 -34 -28 -35 -46
-21 18 0 64 25 -56 -9 51
-40 15 -53 4 -32 -21 25 -78
66 54 -49 23 2 7 34 -127
-15 27 -20 43 26 27 -33 -47
127 -11 3 19 -7 85 -61 8
51 -48 4 -107 1 -29 -6 9
98 -6 70 41 10 33 47 127
-93 47 19 53 -3 -15 4 46
11 18 27 -15 -127 -4 -30 21
5 53 110 13 9 79 -62 74
-44 77 -15 -21 33 -34 -127 11
38 -41 102 -127 34 -10 -49 94
-80 -90 36 -43 11 73 -10 85
47 127 -20 -77 106 7 -6 -46
121 78 -36 8 -2 -33 61 55
13 -95 10 -92 34 -59 25 -90
26 55 69 -11 -5 127 69 55
0 -8 -4 127 40 -7 40 -61
-61 111 30 -21 -23 -67 -20 -9
10 8 -55 -127 18 -4 -20 28
20 -36 16 -36 -9 -43 -14 36
1 24 33 -14 72 -23 88 -51
-84 49 3 36 5 127 -67 -35
48 -1 -127 4 40 -81 17 14
19 55 -69 -46 -54 124 -10 27
-14 4 -22 11 9 -127 -8 16
1 -19 -1 -7 14 -15 12 13
17 -31 108 -25 46 17 -127 -76
-11 -37 40 28 16 -58 -20 -39
-90 15 -3 -30 -21 30 127 56
-19 52 78 -8 11 91 34 -15
00000000: eb5a fd81 dee4 ddd2 eb12 0040 19c8 f733
00000010: d80f cb04 e0eb 19b2 4236 cf17 0207 2281
00000020: f11b ec2b 1a1b dfd1 7ff5 0313 f955 c308
00000030: 33d0 0495 01e3 fa09 62fa 4629 0a21 2f7f
00000040: a32f 1335 fdf1 042e 0b12 1bf1 81fc e215
00000050: 0535 6e0d 094f c24a d44d f1eb 21de 810b
00000060: 26d7 6681 22f6 cf5e b0a6 24d5 0b49 f655
00000070: 2f7f ecb3 6a07 fad2 794e dc08 fedf 3d37
00000080: 0da1 0aa4 22c5 19a6 1a37 45f5 fb7f 4537
00000090: 00f8 fc7f 28f9 28c3 c36f 1eeb e9bd ecf7
000000a0: 0a08 c981 12fc ec1c 14dc 10dc f7d5 f224
000000b0: 0118 21f2 48e9 58cd ac31 0324 057f bddd
000000c0: 30ff 8104 28af 110e 1337 bbd2 ca7c f61b
000000d0: f204 ea0b 0981 f810 01ed fff9 0ef1 0c0d
000000e0: 11e1 6ce7 2e11 81b4 f5db 281c 10c6 ecd9
000000f0: a60f fde2 eb1e 7f38 ed34 4ef8 0b5b 22f1

model_1/head/Conv2D i1 [32, 1, 1, 96]
19 49 32 -93 -71 24 0 77
-27 -41 -120 -109 -117 122 -54 55
46 97 -16 15 -39 -106 -43 32
91 -106 3 113 70 -75 74 9
-84 97 35 -78 -35 17 -94 -18
-104 -46 112 -73 75 -18 -86 112
-111 127 -93 34 -34 93 11 63
-69 -105 -1 31 -15 85 49 -124
85 -120 -108 57 67 -94 -34 127
-64 44 -39 112 -40 -64 -31 -43
-112 51 75 36 -45 -68 -70 -48
34 46 34 71 -96 -72 -47 48
110 40 88 58 18 -50 12 126
36 97 -50 56 -112 -99 38 -31
-26 -33 45 -37 78 92 -53 -45
73 -16 -36 -51 70 52 -19 -50
-71 -56 -55 -18 71 -43 -25 21
15 97 -8 56 44 0 -7 47
24 -127 -17 -31 -6 -72 -54 -115
48 61 115 41 32 -41 -21 -18
113 -3 15 94 59 75 75 94
2 25 65 54 59 -34 118 16
-68 86 -85 77 37 38 -79 36
-58 -54 68 -18 -41 29 30 7
-9 -70 -81 -117 -33 8 83 6
38 -52 -61 -43 65 89 -64 -116
-99 43 -83 43 -88 -48 33 34
-85 83 -37 -40 -22 -32 -83 40
51 -68 46 -7 -78 27 -67 79
67 -25 126 88 -54 -12 57 33
-11 -58 9 100 -121 -82 12 -69
-74 8 94 111 112 81 -60 109
00000000: 1331 20a3 b918 004d e5d7 8893 8b7a ca37
00000010: 2e61 f00f d996 d520 5b96 0371 46b5 4a09
00000020: ac61 23b2 dd11 a2ee 98d2 70b7 4bee aa70
00000030: 917f a322 de5d 0b3f bb97 ff1f f155 3184
00000040: 5588 9439 43a2 de7f c02c d970 d8c0 e1d5
00000050: 9033 4b24 d3bc bad0 222e 2247 a0b8 d130
00000060: 6e28 583a 12ce 0c7e 2461 ce38 909d 26e1
00000070: e6df 2ddb 4e5c cbd3 49f0 dccd 4634 edce
00000080: b9c8 c9ee 47d5 e715 0f61 f838 2c00 f92f
00000090: 1881 efe1 fab8 ca8d 303d 7329 20d7 ebee
000000a0: 71fd 0f5e 3b4b 4b5e 0219 4136 3bde 7610
000000b0: bc56 ab4d 2526 b124 c6ca 44ee d71d 1e07
000000c0: f7ba af8b df08 5306 26cc c3d5 4159 c08c
000000d0: 9d2b ad2b a8d0 2122 ab53 dbd8 eae0 ad28
000000e0: 33bc 2ef9 b21b bd4f 43e7 7e58 caf4 3921
000000f0: f5c6 0964 87ae 0cbb b608 5e6f 7051 c46d

model_1/logits/Conv2D i1 [4, 1, 1, 32]
-44 14 53 127 56 -99 104 69
-105 48 50 87 -33 38 -35 26
-29 -3 37 38 10 48 -7 -55
70 -12 -46 45 -33 16 30 -36
92 -116 21 -7 70 -89 -98 28
-119 108 -67 -14 98 -85 61 100
35 -58 -89 -48 -29 65 90 127
-105 91 123 -78 -19 -70 -36 -43
-7 -107 10 -13 -97 -54 -86 -20
-11 19 -38 -56 86 -127 -85 12
105 54 -127 89 -26 16 -50 -29
49 -114 109 -45 -111 107 105 105
127 -97 109 -58 -103 64 -32 91
101 82 4 32 -4 -94 101 -115
10 60 30 -19 -14 68 -79 52
-59 -108 35 25 -71 102 -25 -119
00000000: d40e 357f 389d 6845 9730 3257 df26 dd1a
00000010: e3fd 2526 0a30 f9c9 46f4 d22d df10 1edc
00000020: 5c8c 15f9 46a7 9e1c 896c bdf2 62ab 3d64
00000030: 23c6 a7d0 e341 5a7f 975b 7bb2 edba dcd5
00000040: f995 0af3 9fca aaec f513 dac8 5681 ab0c
00000050: 6936 8159 e610 cee3 318e 6dd3 916b 6969
00000060: 7f9f 6dc6 9940 e05b 6552 0420 fca2 658d
00000070: 0a3c 1eed f244 b134 c594 2319 b966 e789
